{"modelTopology":{"node":[{"input":[],"attr":{"value":{"tensor":{"floatVal":[],"doubleVal":[],"intVal":[],"stringVal":[],"scomplexVal":[],"int64Val":[],"boolVal":[],"uint32Val":[],"uint64Val":[],"dtype":1,"tensorShape":{"dim":[{"size":"64"}]}}},"dtype":{"type":1}},"name":"generator_hosoda/in13_1/beta","op":"Const"},{"input":[],"attr":{"value":{"tensor":{"floatVal":[],"doubleVal":[],"intVal":[],"stringVal":[],"scomplexVal":[],"int64Val":[],"boolVal":[],"uint32Val":[],"uint64Val":[],"dtype":3,"tensorShape":{"dim":[]}}},"dtype":{"type":3}},"name":"generator_hosoda/deconv02_1/conv2d_transpose/output_shape/3","op":"Const"},{"input":[],"attr":{"value":{"tensor":{"floatVal":[],"doubleVal":[],"intVal":[],"stringVal":[],"scomplexVal":[],"int64Val":[],"boolVal":[],"uint32Val":[],"uint64Val":[],"dtype":1,"tensorShape":{"dim":[{"size":"3"},{"size":"3"},{"size":"64"},{"size":"128"}]}}},"dtype":{"type":1}},"name":"generator_hosoda/deconv02_1/kernel","op":"Const"},{"input":[],"attr":{"value":{"tensor":{"floatVal":[],"doubleVal":[],"intVal":[],"stringVal":[],"scomplexVal":[],"int64Val":[],"boolVal":[],"uint32Val":[],"uint64Val":[],"dtype":1,"tensorShape":{"dim":[{"size":"128"}]}}},"dtype":{"type":1}},"name":"generator_hosoda/in12_1/beta","op":"Const"},{"input":[],"attr":{"value":{"tensor":{"floatVal":[],"doubleVal":[],"intVal":[],"stringVal":[],"scomplexVal":[],"int64Val":[],"boolVal":[],"uint32Val":[],"uint64Val":[],"dtype":3,"tensorShape":{"dim":[{"size":"1"}]}}},"dtype":{"type":3}},"name":"generator_hosoda/deconv02_1/strided_slice/stack","op":"Const"},{"input":[],"attr":{"value":{"tensor":{"floatVal":[],"doubleVal":[],"intVal":[],"stringVal":[],"scomplexVal":[],"int64Val":[],"boolVal":[],"uint32Val":[],"uint64Val":[],"dtype":3,"tensorShape":{"dim":[{"size":"1"}]}}},"dtype":{"type":3}},"name":"generator_hosoda/deconv02_1/strided_slice_1/stack_1","op":"Const"},{"input":[],"attr":{"value":{"tensor":{"floatVal":[],"doubleVal":[],"intVal":[],"stringVal":[],"scomplexVal":[],"int64Val":[],"boolVal":[],"uint32Val":[],"uint64Val":[],"dtype":3,"tensorShape":{"dim":[{"size":"1"}]}}},"dtype":{"type":3}},"name":"generator_hosoda/deconv02_1/strided_slice_2/stack_1","op":"Const"},{"input":[],"attr":{"value":{"tensor":{"floatVal":[],"doubleVal":[],"intVal":[],"stringVal":[],"scomplexVal":[],"int64Val":[],"boolVal":[],"uint32Val":[],"uint64Val":[],"dtype":3,"tensorShape":{"dim":[{"size":"1"}]}}},"dtype":{"type":3}},"name":"generator_hosoda/deconv02_1/strided_slice/stack_1","op":"Const"},{"input":[],"attr":{"value":{"tensor":{"floatVal":[],"doubleVal":[],"intVal":[],"stringVal":[],"scomplexVal":[],"int64Val":[],"boolVal":[],"uint32Val":[],"uint64Val":[],"dtype":3,"tensorShape":{"dim":[]}}},"dtype":{"type":3}},"name":"generator_hosoda/deconv02_1/mul/y","op":"Const"},{"input":[],"attr":{"value":{"tensor":{"floatVal":[],"doubleVal":[],"intVal":[],"stringVal":[],"scomplexVal":[],"int64Val":[],"boolVal":[],"uint32Val":[],"uint64Val":[],"dtype":3,"tensorShape":{"dim":[]}}},"dtype":{"type":3}},"name":"generator_hosoda/deconv02_1/add/y","op":"Const"},{"input":[],"attr":{"value":{"tensor":{"floatVal":[],"doubleVal":[],"intVal":[],"stringVal":[],"scomplexVal":[],"int64Val":[],"boolVal":[],"uint32Val":[],"uint64Val":[],"dtype":3,"tensorShape":{"dim":[]}}},"dtype":{"type":3}},"name":"generator_hosoda/deconv01_1/conv2d_transpose/output_shape/3","op":"Const"},{"input":[],"attr":{"dtype":{"type":1},"value":{"tensor":{"floatVal":[],"doubleVal":[],"intVal":[],"stringVal":[],"scomplexVal":[],"int64Val":[],"boolVal":[],"uint32Val":[],"uint64Val":[],"dtype":1,"tensorShape":{"dim":[{"size":"3"},{"size":"3"},{"size":"128"},{"size":"256"}]}}}},"name":"generator_hosoda/deconv01_1/kernel","op":"Const"},{"input":[],"attr":{"dtype":{"type":1},"value":{"tensor":{"floatVal":[],"doubleVal":[],"intVal":[],"stringVal":[],"scomplexVal":[],"int64Val":[],"boolVal":[],"uint32Val":[],"uint64Val":[],"dtype":1,"tensorShape":{"dim":[{"size":"256"}]}}}},"name":"generator_hosoda/in11_2/beta","op":"Const"},{"input":[],"attr":{"value":{"tensor":{"floatVal":[],"doubleVal":[],"intVal":[],"stringVal":[],"scomplexVal":[],"int64Val":[],"boolVal":[],"uint32Val":[],"uint64Val":[],"dtype":1,"tensorShape":{"dim":[{"size":"256"}]}}},"dtype":{"type":1}},"name":"generator_hosoda/in11_1/beta","op":"Const"},{"input":[],"attr":{"value":{"tensor":{"floatVal":[],"doubleVal":[],"intVal":[],"stringVal":[],"scomplexVal":[],"int64Val":[],"boolVal":[],"uint32Val":[],"uint64Val":[],"dtype":1,"tensorShape":{"dim":[{"size":"3"},{"size":"3"},{"size":"256"},{"size":"256"}]}}},"dtype":{"type":1}},"name":"generator_hosoda/conv11_1/kernel","op":"Const"},{"input":[],"attr":{"value":{"tensor":{"floatVal":[],"doubleVal":[],"intVal":[],"stringVal":[],"scomplexVal":[],"int64Val":[],"boolVal":[],"uint32Val":[],"uint64Val":[],"dtype":1,"tensorShape":{"dim":[{"size":"256"}]}}},"dtype":{"type":1}},"name":"generator_hosoda/conv11_1/bias","op":"Const"},{"input":[],"attr":{"value":{"tensor":{"floatVal":[],"doubleVal":[],"intVal":[],"stringVal":[],"scomplexVal":[],"int64Val":[],"boolVal":[],"uint32Val":[],"uint64Val":[],"dtype":1,"tensorShape":{"dim":[{"size":"256"}]}}},"dtype":{"type":1}},"name":"generator_hosoda/in11_1/gamma","op":"Const"},{"input":[],"attr":{"value":{"tensor":{"floatVal":[],"doubleVal":[],"intVal":[],"stringVal":[],"scomplexVal":[],"int64Val":[],"boolVal":[],"uint32Val":[],"uint64Val":[],"dtype":1,"tensorShape":{"dim":[{"size":"3"},{"size":"3"},{"size":"256"},{"size":"256"}]}}},"dtype":{"type":1}},"name":"generator_hosoda/conv11_2/kernel","op":"Const"},{"input":[],"attr":{"value":{"tensor":{"floatVal":[],"doubleVal":[],"intVal":[],"stringVal":[],"scomplexVal":[],"int64Val":[],"boolVal":[],"uint32Val":[],"uint64Val":[],"dtype":1,"tensorShape":{"dim":[{"size":"256"}]}}},"dtype":{"type":1}},"name":"generator_hosoda/conv11_2/bias","op":"Const"},{"input":[],"attr":{"value":{"tensor":{"floatVal":[],"doubleVal":[],"intVal":[],"stringVal":[],"scomplexVal":[],"int64Val":[],"boolVal":[],"uint32Val":[],"uint64Val":[],"dtype":1,"tensorShape":{"dim":[{"size":"256"}]}}},"dtype":{"type":1}},"name":"generator_hosoda/in11_2/gamma","op":"Const"},{"input":[],"attr":{"value":{"tensor":{"floatVal":[],"doubleVal":[],"intVal":[],"stringVal":[],"scomplexVal":[],"int64Val":[],"boolVal":[],"uint32Val":[],"uint64Val":[],"dtype":1,"tensorShape":{"dim":[{"size":"256"}]}}},"dtype":{"type":1}},"name":"generator_hosoda/in10_2/beta","op":"Const"},{"input":[],"attr":{"value":{"tensor":{"floatVal":[],"doubleVal":[],"intVal":[],"stringVal":[],"scomplexVal":[],"int64Val":[],"boolVal":[],"uint32Val":[],"uint64Val":[],"dtype":1,"tensorShape":{"dim":[{"size":"256"}]}}},"dtype":{"type":1}},"name":"generator_hosoda/in10_1/beta","op":"Const"},{"input":[],"attr":{"dtype":{"type":1},"value":{"tensor":{"floatVal":[],"doubleVal":[],"intVal":[],"stringVal":[],"scomplexVal":[],"int64Val":[],"boolVal":[],"uint32Val":[],"uint64Val":[],"dtype":1,"tensorShape":{"dim":[{"size":"3"},{"size":"3"},{"size":"256"},{"size":"256"}]}}}},"name":"generator_hosoda/conv10_1/kernel","op":"Const"},{"input":[],"attr":{"value":{"tensor":{"floatVal":[],"doubleVal":[],"intVal":[],"stringVal":[],"scomplexVal":[],"int64Val":[],"boolVal":[],"uint32Val":[],"uint64Val":[],"dtype":1,"tensorShape":{"dim":[{"size":"256"}]}}},"dtype":{"type":1}},"name":"generator_hosoda/conv10_1/bias","op":"Const"},{"input":[],"attr":{"value":{"tensor":{"floatVal":[],"doubleVal":[],"intVal":[],"stringVal":[],"scomplexVal":[],"int64Val":[],"boolVal":[],"uint32Val":[],"uint64Val":[],"dtype":1,"tensorShape":{"dim":[{"size":"256"}]}}},"dtype":{"type":1}},"name":"generator_hosoda/in10_1/gamma","op":"Const"},{"input":[],"attr":{"value":{"tensor":{"floatVal":[],"doubleVal":[],"intVal":[],"stringVal":[],"scomplexVal":[],"int64Val":[],"boolVal":[],"uint32Val":[],"uint64Val":[],"dtype":1,"tensorShape":{"dim":[{"size":"3"},{"size":"3"},{"size":"256"},{"size":"256"}]}}},"dtype":{"type":1}},"name":"generator_hosoda/conv10_2/kernel","op":"Const"},{"input":[],"attr":{"value":{"tensor":{"floatVal":[],"doubleVal":[],"intVal":[],"stringVal":[],"scomplexVal":[],"int64Val":[],"boolVal":[],"uint32Val":[],"uint64Val":[],"dtype":1,"tensorShape":{"dim":[{"size":"256"}]}}},"dtype":{"type":1}},"name":"generator_hosoda/conv10_2/bias","op":"Const"},{"input":[],"attr":{"value":{"tensor":{"floatVal":[],"doubleVal":[],"intVal":[],"stringVal":[],"scomplexVal":[],"int64Val":[],"boolVal":[],"uint32Val":[],"uint64Val":[],"dtype":1,"tensorShape":{"dim":[{"size":"256"}]}}},"dtype":{"type":1}},"name":"generator_hosoda/in10_2/gamma","op":"Const"},{"input":[],"attr":{"value":{"tensor":{"floatVal":[],"doubleVal":[],"intVal":[],"stringVal":[],"scomplexVal":[],"int64Val":[],"boolVal":[],"uint32Val":[],"uint64Val":[],"dtype":1,"tensorShape":{"dim":[{"size":"256"}]}}},"dtype":{"type":1}},"name":"generator_hosoda/in09_2/beta","op":"Const"},{"input":[],"attr":{"value":{"tensor":{"floatVal":[],"doubleVal":[],"intVal":[],"stringVal":[],"scomplexVal":[],"int64Val":[],"boolVal":[],"uint32Val":[],"uint64Val":[],"dtype":1,"tensorShape":{"dim":[{"size":"256"}]}}},"dtype":{"type":1}},"name":"generator_hosoda/in09_1/beta","op":"Const"},{"input":[],"attr":{"value":{"tensor":{"floatVal":[],"doubleVal":[],"intVal":[],"stringVal":[],"scomplexVal":[],"int64Val":[],"boolVal":[],"uint32Val":[],"uint64Val":[],"dtype":1,"tensorShape":{"dim":[{"size":"3"},{"size":"3"},{"size":"256"},{"size":"256"}]}}},"dtype":{"type":1}},"name":"generator_hosoda/conv09_1/kernel","op":"Const"},{"input":[],"attr":{"value":{"tensor":{"floatVal":[],"doubleVal":[],"intVal":[],"stringVal":[],"scomplexVal":[],"int64Val":[],"boolVal":[],"uint32Val":[],"uint64Val":[],"dtype":1,"tensorShape":{"dim":[{"size":"256"}]}}},"dtype":{"type":1}},"name":"generator_hosoda/conv09_1/bias","op":"Const"},{"input":[],"attr":{"value":{"tensor":{"floatVal":[],"doubleVal":[],"intVal":[],"stringVal":[],"scomplexVal":[],"int64Val":[],"boolVal":[],"uint32Val":[],"uint64Val":[],"dtype":1,"tensorShape":{"dim":[{"size":"256"}]}}},"dtype":{"type":1}},"name":"generator_hosoda/in09_1/gamma","op":"Const"},{"input":[],"attr":{"value":{"tensor":{"floatVal":[],"doubleVal":[],"intVal":[],"stringVal":[],"scomplexVal":[],"int64Val":[],"boolVal":[],"uint32Val":[],"uint64Val":[],"dtype":1,"tensorShape":{"dim":[{"size":"3"},{"size":"3"},{"size":"256"},{"size":"256"}]}}},"dtype":{"type":1}},"name":"generator_hosoda/conv09_2/kernel","op":"Const"},{"input":[],"attr":{"value":{"tensor":{"floatVal":[],"doubleVal":[],"intVal":[],"stringVal":[],"scomplexVal":[],"int64Val":[],"boolVal":[],"uint32Val":[],"uint64Val":[],"dtype":1,"tensorShape":{"dim":[{"size":"256"}]}}},"dtype":{"type":1}},"name":"generator_hosoda/conv09_2/bias","op":"Const"},{"input":[],"attr":{"value":{"tensor":{"floatVal":[],"doubleVal":[],"intVal":[],"stringVal":[],"scomplexVal":[],"int64Val":[],"boolVal":[],"uint32Val":[],"uint64Val":[],"dtype":1,"tensorShape":{"dim":[{"size":"256"}]}}},"dtype":{"type":1}},"name":"generator_hosoda/in09_2/gamma","op":"Const"},{"input":[],"attr":{"value":{"tensor":{"floatVal":[],"doubleVal":[],"intVal":[],"stringVal":[],"scomplexVal":[],"int64Val":[],"boolVal":[],"uint32Val":[],"uint64Val":[],"dtype":1,"tensorShape":{"dim":[{"size":"256"}]}}},"dtype":{"type":1}},"name":"generator_hosoda/in08_2/beta","op":"Const"},{"input":[],"attr":{"value":{"tensor":{"floatVal":[],"doubleVal":[],"intVal":[],"stringVal":[],"scomplexVal":[],"int64Val":[],"boolVal":[],"uint32Val":[],"uint64Val":[],"dtype":1,"tensorShape":{"dim":[{"size":"256"}]}}},"dtype":{"type":1}},"name":"generator_hosoda/in08_1/beta","op":"Const"},{"input":[],"attr":{"value":{"tensor":{"floatVal":[],"doubleVal":[],"intVal":[],"stringVal":[],"scomplexVal":[],"int64Val":[],"boolVal":[],"uint32Val":[],"uint64Val":[],"dtype":1,"tensorShape":{"dim":[{"size":"3"},{"size":"3"},{"size":"256"},{"size":"256"}]}}},"dtype":{"type":1}},"name":"generator_hosoda/conv08_1/kernel","op":"Const"},{"input":[],"attr":{"value":{"tensor":{"floatVal":[],"doubleVal":[],"intVal":[],"stringVal":[],"scomplexVal":[],"int64Val":[],"boolVal":[],"uint32Val":[],"uint64Val":[],"dtype":1,"tensorShape":{"dim":[{"size":"256"}]}}},"dtype":{"type":1}},"name":"generator_hosoda/conv08_1/bias","op":"Const"},{"input":[],"attr":{"value":{"tensor":{"floatVal":[],"doubleVal":[],"intVal":[],"stringVal":[],"scomplexVal":[],"int64Val":[],"boolVal":[],"uint32Val":[],"uint64Val":[],"dtype":1,"tensorShape":{"dim":[{"size":"256"}]}}},"dtype":{"type":1}},"name":"generator_hosoda/in08_1/gamma","op":"Const"},{"input":[],"attr":{"value":{"tensor":{"floatVal":[],"doubleVal":[],"intVal":[],"stringVal":[],"scomplexVal":[],"int64Val":[],"boolVal":[],"uint32Val":[],"uint64Val":[],"dtype":1,"tensorShape":{"dim":[{"size":"3"},{"size":"3"},{"size":"256"},{"size":"256"}]}}},"dtype":{"type":1}},"name":"generator_hosoda/conv08_2/kernel","op":"Const"},{"input":[],"attr":{"value":{"tensor":{"floatVal":[],"doubleVal":[],"intVal":[],"stringVal":[],"scomplexVal":[],"int64Val":[],"boolVal":[],"uint32Val":[],"uint64Val":[],"dtype":1,"tensorShape":{"dim":[{"size":"256"}]}}},"dtype":{"type":1}},"name":"generator_hosoda/conv08_2/bias","op":"Const"},{"input":[],"attr":{"value":{"tensor":{"floatVal":[],"doubleVal":[],"intVal":[],"stringVal":[],"scomplexVal":[],"int64Val":[],"boolVal":[],"uint32Val":[],"uint64Val":[],"dtype":1,"tensorShape":{"dim":[{"size":"256"}]}}},"dtype":{"type":1}},"name":"generator_hosoda/in08_2/gamma","op":"Const"},{"input":[],"attr":{"dtype":{"type":1},"value":{"tensor":{"floatVal":[],"doubleVal":[],"intVal":[],"stringVal":[],"scomplexVal":[],"int64Val":[],"boolVal":[],"uint32Val":[],"uint64Val":[],"dtype":1,"tensorShape":{"dim":[{"size":"256"}]}}}},"name":"generator_hosoda/in07_2/beta","op":"Const"},{"input":[],"attr":{"value":{"tensor":{"floatVal":[],"doubleVal":[],"intVal":[],"stringVal":[],"scomplexVal":[],"int64Val":[],"boolVal":[],"uint32Val":[],"uint64Val":[],"dtype":1,"tensorShape":{"dim":[{"size":"256"}]}}},"dtype":{"type":1}},"name":"generator_hosoda/in07_1/beta","op":"Const"},{"input":[],"attr":{"value":{"tensor":{"floatVal":[],"doubleVal":[],"intVal":[],"stringVal":[],"scomplexVal":[],"int64Val":[],"boolVal":[],"uint32Val":[],"uint64Val":[],"dtype":1,"tensorShape":{"dim":[{"size":"3"},{"size":"3"},{"size":"256"},{"size":"256"}]}}},"dtype":{"type":1}},"name":"generator_hosoda/conv07_1/kernel","op":"Const"},{"input":[],"attr":{"value":{"tensor":{"floatVal":[],"doubleVal":[],"intVal":[],"stringVal":[],"scomplexVal":[],"int64Val":[],"boolVal":[],"uint32Val":[],"uint64Val":[],"dtype":1,"tensorShape":{"dim":[{"size":"256"}]}}},"dtype":{"type":1}},"name":"generator_hosoda/conv07_1/bias","op":"Const"},{"input":[],"attr":{"value":{"tensor":{"floatVal":[],"doubleVal":[],"intVal":[],"stringVal":[],"scomplexVal":[],"int64Val":[],"boolVal":[],"uint32Val":[],"uint64Val":[],"dtype":1,"tensorShape":{"dim":[{"size":"256"}]}}},"dtype":{"type":1}},"name":"generator_hosoda/in07_1/gamma","op":"Const"},{"input":[],"attr":{"value":{"tensor":{"floatVal":[],"doubleVal":[],"intVal":[],"stringVal":[],"scomplexVal":[],"int64Val":[],"boolVal":[],"uint32Val":[],"uint64Val":[],"dtype":1,"tensorShape":{"dim":[{"size":"3"},{"size":"3"},{"size":"256"},{"size":"256"}]}}},"dtype":{"type":1}},"name":"generator_hosoda/conv07_2/kernel","op":"Const"},{"input":[],"attr":{"dtype":{"type":1},"value":{"tensor":{"floatVal":[],"doubleVal":[],"intVal":[],"stringVal":[],"scomplexVal":[],"int64Val":[],"boolVal":[],"uint32Val":[],"uint64Val":[],"dtype":1,"tensorShape":{"dim":[{"size":"256"}]}}}},"name":"generator_hosoda/conv07_2/bias","op":"Const"},{"input":[],"attr":{"value":{"tensor":{"floatVal":[],"doubleVal":[],"intVal":[],"stringVal":[],"scomplexVal":[],"int64Val":[],"boolVal":[],"uint32Val":[],"uint64Val":[],"dtype":1,"tensorShape":{"dim":[{"size":"256"}]}}},"dtype":{"type":1}},"name":"generator_hosoda/in07_2/gamma","op":"Const"},{"input":[],"attr":{"value":{"tensor":{"floatVal":[],"doubleVal":[],"intVal":[],"stringVal":[],"scomplexVal":[],"int64Val":[],"boolVal":[],"uint32Val":[],"uint64Val":[],"dtype":1,"tensorShape":{"dim":[{"size":"256"}]}}},"dtype":{"type":1}},"name":"generator_hosoda/in06_2/beta","op":"Const"},{"input":[],"attr":{"dtype":{"type":1},"value":{"tensor":{"floatVal":[],"doubleVal":[],"intVal":[],"stringVal":[],"scomplexVal":[],"int64Val":[],"boolVal":[],"uint32Val":[],"uint64Val":[],"dtype":1,"tensorShape":{"dim":[{"size":"256"}]}}}},"name":"generator_hosoda/in06_1/beta","op":"Const"},{"input":[],"attr":{"value":{"tensor":{"floatVal":[],"doubleVal":[],"intVal":[],"stringVal":[],"scomplexVal":[],"int64Val":[],"boolVal":[],"uint32Val":[],"uint64Val":[],"dtype":1,"tensorShape":{"dim":[{"size":"3"},{"size":"3"},{"size":"256"},{"size":"256"}]}}},"dtype":{"type":1}},"name":"generator_hosoda/conv06_1/kernel","op":"Const"},{"input":[],"attr":{"value":{"tensor":{"floatVal":[],"doubleVal":[],"intVal":[],"stringVal":[],"scomplexVal":[],"int64Val":[],"boolVal":[],"uint32Val":[],"uint64Val":[],"dtype":1,"tensorShape":{"dim":[{"size":"256"}]}}},"dtype":{"type":1}},"name":"generator_hosoda/conv06_1/bias","op":"Const"},{"input":[],"attr":{"value":{"tensor":{"floatVal":[],"doubleVal":[],"intVal":[],"stringVal":[],"scomplexVal":[],"int64Val":[],"boolVal":[],"uint32Val":[],"uint64Val":[],"dtype":1,"tensorShape":{"dim":[{"size":"256"}]}}},"dtype":{"type":1}},"name":"generator_hosoda/in06_1/gamma","op":"Const"},{"input":[],"attr":{"value":{"tensor":{"floatVal":[],"doubleVal":[],"intVal":[],"stringVal":[],"scomplexVal":[],"int64Val":[],"boolVal":[],"uint32Val":[],"uint64Val":[],"dtype":1,"tensorShape":{"dim":[{"size":"3"},{"size":"3"},{"size":"256"},{"size":"256"}]}}},"dtype":{"type":1}},"name":"generator_hosoda/conv06_2/kernel","op":"Const"},{"input":[],"attr":{"value":{"tensor":{"floatVal":[],"doubleVal":[],"intVal":[],"stringVal":[],"scomplexVal":[],"int64Val":[],"boolVal":[],"uint32Val":[],"uint64Val":[],"dtype":1,"tensorShape":{"dim":[{"size":"256"}]}}},"dtype":{"type":1}},"name":"generator_hosoda/conv06_2/bias","op":"Const"},{"input":[],"attr":{"value":{"tensor":{"floatVal":[],"doubleVal":[],"intVal":[],"stringVal":[],"scomplexVal":[],"int64Val":[],"boolVal":[],"uint32Val":[],"uint64Val":[],"dtype":1,"tensorShape":{"dim":[{"size":"256"}]}}},"dtype":{"type":1}},"name":"generator_hosoda/in06_2/gamma","op":"Const"},{"input":[],"attr":{"value":{"tensor":{"floatVal":[],"doubleVal":[],"intVal":[],"stringVal":[],"scomplexVal":[],"int64Val":[],"boolVal":[],"uint32Val":[],"uint64Val":[],"dtype":1,"tensorShape":{"dim":[{"size":"256"}]}}},"dtype":{"type":1}},"name":"generator_hosoda/in05_2/beta","op":"Const"},{"input":[],"attr":{"value":{"tensor":{"floatVal":[],"doubleVal":[],"intVal":[],"stringVal":[],"scomplexVal":[],"int64Val":[],"boolVal":[],"uint32Val":[],"uint64Val":[],"dtype":1,"tensorShape":{"dim":[{"size":"256"}]}}},"dtype":{"type":1}},"name":"generator_hosoda/in05_1/beta","op":"Const"},{"input":[],"attr":{"value":{"tensor":{"floatVal":[],"doubleVal":[],"intVal":[],"stringVal":[],"scomplexVal":[],"int64Val":[],"boolVal":[],"uint32Val":[],"uint64Val":[],"dtype":1,"tensorShape":{"dim":[{"size":"3"},{"size":"3"},{"size":"256"},{"size":"256"}]}}},"dtype":{"type":1}},"name":"generator_hosoda/conv05_1/kernel","op":"Const"},{"input":[],"attr":{"dtype":{"type":1},"value":{"tensor":{"floatVal":[],"doubleVal":[],"intVal":[],"stringVal":[],"scomplexVal":[],"int64Val":[],"boolVal":[],"uint32Val":[],"uint64Val":[],"dtype":1,"tensorShape":{"dim":[{"size":"256"}]}}}},"name":"generator_hosoda/conv05_1/bias","op":"Const"},{"input":[],"attr":{"value":{"tensor":{"floatVal":[],"doubleVal":[],"intVal":[],"stringVal":[],"scomplexVal":[],"int64Val":[],"boolVal":[],"uint32Val":[],"uint64Val":[],"dtype":1,"tensorShape":{"dim":[{"size":"256"}]}}},"dtype":{"type":1}},"name":"generator_hosoda/in05_1/gamma","op":"Const"},{"input":[],"attr":{"value":{"tensor":{"floatVal":[],"doubleVal":[],"intVal":[],"stringVal":[],"scomplexVal":[],"int64Val":[],"boolVal":[],"uint32Val":[],"uint64Val":[],"dtype":1,"tensorShape":{"dim":[{"size":"3"},{"size":"3"},{"size":"256"},{"size":"256"}]}}},"dtype":{"type":1}},"name":"generator_hosoda/conv05_2/kernel","op":"Const"},{"input":[],"attr":{"value":{"tensor":{"floatVal":[],"doubleVal":[],"intVal":[],"stringVal":[],"scomplexVal":[],"int64Val":[],"boolVal":[],"uint32Val":[],"uint64Val":[],"dtype":1,"tensorShape":{"dim":[{"size":"256"}]}}},"dtype":{"type":1}},"name":"generator_hosoda/conv05_2/bias","op":"Const"},{"input":[],"attr":{"value":{"tensor":{"floatVal":[],"doubleVal":[],"intVal":[],"stringVal":[],"scomplexVal":[],"int64Val":[],"boolVal":[],"uint32Val":[],"uint64Val":[],"dtype":1,"tensorShape":{"dim":[{"size":"256"}]}}},"dtype":{"type":1}},"name":"generator_hosoda/in05_2/gamma","op":"Const"},{"input":[],"attr":{"value":{"tensor":{"floatVal":[],"doubleVal":[],"intVal":[],"stringVal":[],"scomplexVal":[],"int64Val":[],"boolVal":[],"uint32Val":[],"uint64Val":[],"dtype":1,"tensorShape":{"dim":[{"size":"256"}]}}},"dtype":{"type":1}},"name":"generator_hosoda/in04_2/beta","op":"Const"},{"input":[],"attr":{"value":{"tensor":{"floatVal":[],"doubleVal":[],"intVal":[],"stringVal":[],"scomplexVal":[],"int64Val":[],"boolVal":[],"uint32Val":[],"uint64Val":[],"dtype":1,"tensorShape":{"dim":[{"size":"256"}]}}},"dtype":{"type":1}},"name":"generator_hosoda/in04_1/beta","op":"Const"},{"input":[],"attr":{"value":{"tensor":{"floatVal":[],"doubleVal":[],"intVal":[],"stringVal":[],"scomplexVal":[],"int64Val":[],"boolVal":[],"uint32Val":[],"uint64Val":[],"dtype":1,"tensorShape":{"dim":[{"size":"3"},{"size":"3"},{"size":"256"},{"size":"256"}]}}},"dtype":{"type":1}},"name":"generator_hosoda/conv04_1/kernel","op":"Const"},{"input":[],"attr":{"value":{"tensor":{"floatVal":[],"doubleVal":[],"intVal":[],"stringVal":[],"scomplexVal":[],"int64Val":[],"boolVal":[],"uint32Val":[],"uint64Val":[],"dtype":1,"tensorShape":{"dim":[{"size":"256"}]}}},"dtype":{"type":1}},"name":"generator_hosoda/conv04_1/bias","op":"Const"},{"input":[],"attr":{"value":{"tensor":{"floatVal":[],"doubleVal":[],"intVal":[],"stringVal":[],"scomplexVal":[],"int64Val":[],"boolVal":[],"uint32Val":[],"uint64Val":[],"dtype":1,"tensorShape":{"dim":[{"size":"256"}]}}},"dtype":{"type":1}},"name":"generator_hosoda/in04_1/gamma","op":"Const"},{"input":[],"attr":{"dtype":{"type":1},"value":{"tensor":{"floatVal":[],"doubleVal":[],"intVal":[],"stringVal":[],"scomplexVal":[],"int64Val":[],"boolVal":[],"uint32Val":[],"uint64Val":[],"dtype":1,"tensorShape":{"dim":[{"size":"3"},{"size":"3"},{"size":"256"},{"size":"256"}]}}}},"name":"generator_hosoda/conv04_2/kernel","op":"Const"},{"input":[],"attr":{"value":{"tensor":{"floatVal":[],"doubleVal":[],"intVal":[],"stringVal":[],"scomplexVal":[],"int64Val":[],"boolVal":[],"uint32Val":[],"uint64Val":[],"dtype":1,"tensorShape":{"dim":[{"size":"256"}]}}},"dtype":{"type":1}},"name":"generator_hosoda/conv04_2/bias","op":"Const"},{"input":[],"attr":{"value":{"tensor":{"floatVal":[],"doubleVal":[],"intVal":[],"stringVal":[],"scomplexVal":[],"int64Val":[],"boolVal":[],"uint32Val":[],"uint64Val":[],"dtype":1,"tensorShape":{"dim":[{"size":"256"}]}}},"dtype":{"type":1}},"name":"generator_hosoda/in04_2/gamma","op":"Const"},{"input":[],"attr":{"value":{"tensor":{"floatVal":[],"doubleVal":[],"intVal":[],"stringVal":[],"scomplexVal":[],"int64Val":[],"boolVal":[],"uint32Val":[],"uint64Val":[],"dtype":1,"tensorShape":{"dim":[{"size":"256"}]}}},"dtype":{"type":1}},"name":"generator_hosoda/in03_1/beta","op":"Const"},{"input":[],"attr":{"value":{"tensor":{"floatVal":[],"doubleVal":[],"intVal":[],"stringVal":[],"scomplexVal":[],"int64Val":[],"boolVal":[],"uint32Val":[],"uint64Val":[],"dtype":1,"tensorShape":{"dim":[{"size":"128"}]}}},"dtype":{"type":1}},"name":"generator_hosoda/in02_1/beta","op":"Const"},{"input":[],"attr":{"value":{"tensor":{"floatVal":[],"doubleVal":[],"intVal":[],"stringVal":[],"scomplexVal":[],"int64Val":[],"boolVal":[],"uint32Val":[],"uint64Val":[],"dtype":1,"tensorShape":{"dim":[{"size":"64"}]}}},"dtype":{"type":1}},"name":"generator_hosoda/in01_1/beta","op":"Const"},{"input":[],"attr":{"value":{"tensor":{"floatVal":[],"doubleVal":[],"intVal":[],"stringVal":[],"scomplexVal":[],"int64Val":[],"boolVal":[],"uint32Val":[],"uint64Val":[],"dtype":1,"tensorShape":{"dim":[{"size":"7"},{"size":"7"},{"size":"3"},{"size":"64"}]}}},"dtype":{"type":1}},"name":"generator_hosoda/conv01_1/kernel","op":"Const"},{"input":[],"attr":{"value":{"tensor":{"floatVal":[],"doubleVal":[],"intVal":[],"stringVal":[],"scomplexVal":[],"int64Val":[],"boolVal":[],"uint32Val":[],"uint64Val":[],"dtype":1,"tensorShape":{"dim":[{"size":"64"}]}}},"dtype":{"type":1}},"name":"generator_hosoda/conv01_1/bias","op":"Const"},{"input":[],"attr":{"value":{"tensor":{"floatVal":[],"doubleVal":[],"intVal":[],"stringVal":[],"scomplexVal":[],"int64Val":[],"boolVal":[],"uint32Val":[],"uint64Val":[],"dtype":1,"tensorShape":{"dim":[{"size":"64"}]}}},"dtype":{"type":1}},"name":"generator_hosoda/in01_1/gamma","op":"Const"},{"input":[],"attr":{"value":{"tensor":{"floatVal":[],"doubleVal":[],"intVal":[],"stringVal":[],"scomplexVal":[],"int64Val":[],"boolVal":[],"uint32Val":[],"uint64Val":[],"dtype":1,"tensorShape":{"dim":[{"size":"3"},{"size":"3"},{"size":"64"},{"size":"128"}]}}},"dtype":{"type":1}},"name":"generator_hosoda/conv02_1/kernel","op":"Const"},{"input":[],"attr":{"value":{"tensor":{"floatVal":[],"doubleVal":[],"intVal":[],"stringVal":[],"scomplexVal":[],"int64Val":[],"boolVal":[],"uint32Val":[],"uint64Val":[],"dtype":1,"tensorShape":{"dim":[{"size":"128"}]}}},"dtype":{"type":1}},"name":"generator_hosoda/conv02_1/bias","op":"Const"},{"input":[],"attr":{"value":{"tensor":{"floatVal":[],"doubleVal":[],"intVal":[],"stringVal":[],"scomplexVal":[],"int64Val":[],"boolVal":[],"uint32Val":[],"uint64Val":[],"dtype":1,"tensorShape":{"dim":[{"size":"3"},{"size":"3"},{"size":"128"},{"size":"128"}]}}},"dtype":{"type":1}},"name":"generator_hosoda/conv02_2/kernel","op":"Const"},{"input":[],"attr":{"value":{"tensor":{"floatVal":[],"doubleVal":[],"intVal":[],"stringVal":[],"scomplexVal":[],"int64Val":[],"boolVal":[],"uint32Val":[],"uint64Val":[],"dtype":1,"tensorShape":{"dim":[{"size":"128"}]}}},"dtype":{"type":1}},"name":"generator_hosoda/conv02_2/bias","op":"Const"},{"input":[],"attr":{"value":{"tensor":{"floatVal":[],"doubleVal":[],"intVal":[],"stringVal":[],"scomplexVal":[],"int64Val":[],"boolVal":[],"uint32Val":[],"uint64Val":[],"dtype":1,"tensorShape":{"dim":[{"size":"128"}]}}},"dtype":{"type":1}},"name":"generator_hosoda/in02_1/gamma","op":"Const"},{"input":[],"attr":{"value":{"tensor":{"floatVal":[],"doubleVal":[],"intVal":[],"stringVal":[],"scomplexVal":[],"int64Val":[],"boolVal":[],"uint32Val":[],"uint64Val":[],"dtype":1,"tensorShape":{"dim":[{"size":"3"},{"size":"3"},{"size":"128"},{"size":"256"}]}}},"dtype":{"type":1}},"name":"generator_hosoda/conv03_1/kernel","op":"Const"},{"input":[],"attr":{"value":{"tensor":{"floatVal":[],"doubleVal":[],"intVal":[],"stringVal":[],"scomplexVal":[],"int64Val":[],"boolVal":[],"uint32Val":[],"uint64Val":[],"dtype":1,"tensorShape":{"dim":[{"size":"256"}]}}},"dtype":{"type":1}},"name":"generator_hosoda/conv03_1/bias","op":"Const"},{"input":[],"attr":{"value":{"tensor":{"floatVal":[],"doubleVal":[],"intVal":[],"stringVal":[],"scomplexVal":[],"int64Val":[],"boolVal":[],"uint32Val":[],"uint64Val":[],"dtype":1,"tensorShape":{"dim":[{"size":"3"},{"size":"3"},{"size":"256"},{"size":"256"}]}}},"dtype":{"type":1}},"name":"generator_hosoda/conv03_2/kernel","op":"Const"},{"input":[],"attr":{"value":{"tensor":{"floatVal":[],"doubleVal":[],"intVal":[],"stringVal":[],"scomplexVal":[],"int64Val":[],"boolVal":[],"uint32Val":[],"uint64Val":[],"dtype":1,"tensorShape":{"dim":[{"size":"256"}]}}},"dtype":{"type":1}},"name":"generator_hosoda/conv03_2/bias","op":"Const"},{"input":[],"attr":{"value":{"tensor":{"floatVal":[],"doubleVal":[],"intVal":[],"stringVal":[],"scomplexVal":[],"int64Val":[],"boolVal":[],"uint32Val":[],"uint64Val":[],"dtype":1,"tensorShape":{"dim":[{"size":"256"}]}}},"dtype":{"type":1}},"name":"generator_hosoda/in03_1/gamma","op":"Const"},{"input":[],"attr":{"value":{"tensor":{"floatVal":[],"doubleVal":[],"intVal":[],"stringVal":[],"scomplexVal":[],"int64Val":[],"boolVal":[],"uint32Val":[],"uint64Val":[],"dtype":1,"tensorShape":{"dim":[{"size":"128"}]}}},"dtype":{"type":1}},"name":"generator_hosoda/deconv01_1/bias","op":"Const"},{"input":[],"attr":{"value":{"tensor":{"floatVal":[],"doubleVal":[],"intVal":[],"stringVal":[],"scomplexVal":[],"int64Val":[],"boolVal":[],"uint32Val":[],"uint64Val":[],"dtype":1,"tensorShape":{"dim":[{"size":"3"},{"size":"3"},{"size":"128"},{"size":"128"}]}}},"dtype":{"type":1}},"name":"generator_hosoda/deconv01_2/kernel","op":"Const"},{"input":[],"attr":{"value":{"tensor":{"floatVal":[],"doubleVal":[],"intVal":[],"stringVal":[],"scomplexVal":[],"int64Val":[],"boolVal":[],"uint32Val":[],"uint64Val":[],"dtype":1,"tensorShape":{"dim":[{"size":"128"}]}}},"dtype":{"type":1}},"name":"generator_hosoda/deconv01_2/bias","op":"Const"},{"input":[],"attr":{"value":{"tensor":{"floatVal":[],"doubleVal":[],"intVal":[],"stringVal":[],"scomplexVal":[],"int64Val":[],"boolVal":[],"uint32Val":[],"uint64Val":[],"dtype":1,"tensorShape":{"dim":[{"size":"128"}]}}},"dtype":{"type":1}},"name":"generator_hosoda/in12_1/gamma","op":"Const"},{"input":[],"attr":{"value":{"tensor":{"floatVal":[],"doubleVal":[],"intVal":[],"stringVal":[],"scomplexVal":[],"int64Val":[],"boolVal":[],"uint32Val":[],"uint64Val":[],"dtype":3,"tensorShape":{"dim":[{"size":"3"}]}}},"dtype":{"type":3}},"name":"generator_hosoda/deconv01_1/strided_slice_3/stack","op":"Const"},{"input":[],"attr":{"value":{"tensor":{"floatVal":[],"doubleVal":[],"intVal":[],"stringVal":[],"scomplexVal":[],"int64Val":[],"boolVal":[],"uint32Val":[],"uint64Val":[],"dtype":3,"tensorShape":{"dim":[{"size":"3"}]}}},"dtype":{"type":3}},"name":"generator_hosoda/deconv01_1/strided_slice_3/stack_1","op":"Const"},{"input":[],"attr":{"value":{"tensor":{"floatVal":[],"doubleVal":[],"intVal":[],"stringVal":[],"scomplexVal":[],"int64Val":[],"boolVal":[],"uint32Val":[],"uint64Val":[],"dtype":3,"tensorShape":{"dim":[{"size":"3"}]}}},"dtype":{"type":3}},"name":"generator_hosoda/deconv01_1/strided_slice_3/stack_2","op":"Const"},{"input":[],"attr":{"value":{"tensor":{"floatVal":[],"doubleVal":[],"intVal":[],"stringVal":[],"scomplexVal":[],"int64Val":[],"boolVal":[],"uint32Val":[],"uint64Val":[],"dtype":1,"tensorShape":{"dim":[{"size":"64"}]}}},"dtype":{"type":1}},"name":"generator_hosoda/deconv02_1/bias","op":"Const"},{"input":[],"attr":{"value":{"tensor":{"floatVal":[],"doubleVal":[],"intVal":[],"stringVal":[],"scomplexVal":[],"int64Val":[],"boolVal":[],"uint32Val":[],"uint64Val":[],"dtype":3,"tensorShape":{"dim":[{"size":"4"},{"size":"2"}]}}},"dtype":{"type":3}},"name":"generator_hosoda/Pad_15/paddings","op":"Const"},{"input":[],"attr":{"value":{"tensor":{"floatVal":[],"doubleVal":[],"intVal":[],"stringVal":[],"scomplexVal":[],"int64Val":[],"boolVal":[],"uint32Val":[],"uint64Val":[],"dtype":1,"tensorShape":{"dim":[{"size":"3"},{"size":"3"},{"size":"64"},{"size":"64"}]}}},"dtype":{"type":1}},"name":"generator_hosoda/deconv02_2/kernel","op":"Const"},{"input":[],"attr":{"value":{"tensor":{"floatVal":[],"doubleVal":[],"intVal":[],"stringVal":[],"scomplexVal":[],"int64Val":[],"boolVal":[],"uint32Val":[],"uint64Val":[],"dtype":1,"tensorShape":{"dim":[{"size":"64"}]}}},"dtype":{"type":1}},"name":"generator_hosoda/deconv02_2/bias","op":"Const"},{"input":[],"attr":{"value":{"tensor":{"floatVal":[],"doubleVal":[],"intVal":[],"stringVal":[],"scomplexVal":[],"int64Val":[],"boolVal":[],"uint32Val":[],"uint64Val":[],"dtype":3,"tensorShape":{"dim":[{"size":"2"}]}}},"dtype":{"type":3}},"name":"generator_hosoda/in11_1/moments/mean/reduction_indices","op":"Const"},{"input":[],"attr":{"value":{"tensor":{"floatVal":[],"doubleVal":[],"intVal":[],"stringVal":[],"scomplexVal":[],"int64Val":[],"boolVal":[],"uint32Val":[],"uint64Val":[],"dtype":1,"tensorShape":{"dim":[]}}},"dtype":{"type":1}},"name":"generator_hosoda/in11_1/instancenorm/add/y","op":"Const"},{"input":[],"attr":{"value":{"tensor":{"floatVal":[],"doubleVal":[],"intVal":[],"stringVal":[],"scomplexVal":[],"int64Val":[],"boolVal":[],"uint32Val":[],"uint64Val":[],"dtype":1,"tensorShape":{"dim":[{"size":"64"}]}}},"dtype":{"type":1}},"name":"generator_hosoda/in13_1/gamma","op":"Const"},{"input":[],"attr":{"value":{"tensor":{"floatVal":[],"doubleVal":[],"intVal":[],"stringVal":[],"scomplexVal":[],"int64Val":[],"boolVal":[],"uint32Val":[],"uint64Val":[],"dtype":3,"tensorShape":{"dim":[{"size":"4"},{"size":"2"}]}}},"dtype":{"type":3}},"name":"generator_hosoda/Pad/paddings","op":"Const"},{"input":[],"attr":{"value":{"tensor":{"floatVal":[],"doubleVal":[],"intVal":[],"stringVal":[],"scomplexVal":[],"int64Val":[],"boolVal":[],"uint32Val":[],"uint64Val":[],"dtype":1,"tensorShape":{"dim":[{"size":"7"},{"size":"7"},{"size":"64"},{"size":"3"}]}}},"dtype":{"type":1}},"name":"generator_hosoda/deconv03_1/kernel","op":"Const"},{"input":[],"attr":{"value":{"tensor":{"floatVal":[],"doubleVal":[],"intVal":[],"stringVal":[],"scomplexVal":[],"int64Val":[],"boolVal":[],"uint32Val":[],"uint64Val":[],"dtype":1,"tensorShape":{"dim":[{"size":"3"}]}}},"dtype":{"type":1}},"name":"generator_hosoda/deconv03_1/bias","op":"Const"},{"input":[],"attr":{"dtype":{"type":1},"shape":{"shape":{"dim":[{"size":"-1"},{"size":"-1"},{"size":"-1"},{"size":"3"}]}}},"name":"generator_hosoda/input","op":"Placeholder"},{"input":["generator_hosoda/input","generator_hosoda/Pad/paddings"],"attr":{"T":{"type":1},"Tpaddings":{"type":3}},"name":"generator_hosoda/Pad","op":"Pad"},{"input":["generator_hosoda/Pad","generator_hosoda/conv01_1/kernel"],"attr":{"dilations":{"list":{"s":[],"i":["1","1","1","1"],"f":[],"b":[],"type":[],"shape":[],"tensor":[],"func":[]}},"T":{"type":1},"data_format":{"s":[78,72,87,67]},"strides":{"list":{"s":[],"i":["1","1","1","1"],"f":[],"b":[],"type":[],"shape":[],"tensor":[],"func":[]}},"use_cudnn_on_gpu":{"b":true},"padding":{"s":[86,65,76,73,68]}},"name":"generator_hosoda/conv01_1/Conv2D","op":"Conv2D"},{"input":["generator_hosoda/conv01_1/Conv2D","generator_hosoda/conv01_1/bias"],"attr":{"T":{"type":1},"data_format":{"s":[78,72,87,67]}},"name":"generator_hosoda/conv01_1/BiasAdd","op":"BiasAdd"},{"input":["generator_hosoda/conv01_1/BiasAdd","generator_hosoda/in11_1/moments/mean/reduction_indices"],"attr":{"T":{"type":1},"Tidx":{"type":3},"keep_dims":{"b":true}},"name":"generator_hosoda/in01_1/moments/mean","op":"Mean"},{"input":["generator_hosoda/conv01_1/BiasAdd","generator_hosoda/in01_1/moments/mean"],"attr":{"T":{"type":1}},"name":"generator_hosoda/in01_1/moments/SquaredDifference","op":"SquaredDifference"},{"input":["generator_hosoda/in01_1/moments/SquaredDifference","generator_hosoda/in11_1/moments/mean/reduction_indices"],"attr":{"T":{"type":1},"Tidx":{"type":3},"keep_dims":{"b":true}},"name":"generator_hosoda/in01_1/moments/variance","op":"Mean"},{"input":["generator_hosoda/in01_1/moments/variance","generator_hosoda/in11_1/instancenorm/add/y"],"attr":{"T":{"type":1}},"name":"generator_hosoda/in01_1/instancenorm/add","op":"Add"},{"input":["generator_hosoda/in01_1/instancenorm/add"],"attr":{"T":{"type":1}},"name":"generator_hosoda/in01_1/instancenorm/Rsqrt","op":"Rsqrt"},{"input":["generator_hosoda/in01_1/instancenorm/Rsqrt","generator_hosoda/in01_1/gamma"],"attr":{"T":{"type":1}},"name":"generator_hosoda/in01_1/instancenorm/mul","op":"Mul"},{"input":["generator_hosoda/conv01_1/BiasAdd","generator_hosoda/in01_1/instancenorm/mul"],"attr":{"T":{"type":1}},"name":"generator_hosoda/in01_1/instancenorm/mul_1","op":"Mul"},{"input":["generator_hosoda/in01_1/moments/mean","generator_hosoda/in01_1/instancenorm/mul"],"attr":{"T":{"type":1}},"name":"generator_hosoda/in01_1/instancenorm/mul_2","op":"Mul"},{"input":["generator_hosoda/in01_1/beta","generator_hosoda/in01_1/instancenorm/mul_2"],"attr":{"T":{"type":1}},"name":"generator_hosoda/in01_1/instancenorm/sub","op":"Sub"},{"input":["generator_hosoda/in01_1/instancenorm/mul_1","generator_hosoda/in01_1/instancenorm/sub"],"attr":{"T":{"type":1}},"name":"generator_hosoda/in01_1/instancenorm/add_1","op":"Add"},{"input":["generator_hosoda/in01_1/instancenorm/add_1"],"attr":{"T":{"type":1}},"name":"generator_hosoda/Relu","op":"Relu"},{"input":["generator_hosoda/Relu","generator_hosoda/Pad_15/paddings"],"attr":{"T":{"type":1},"Tpaddings":{"type":3}},"name":"generator_hosoda/conv02_1/Pad","op":"Pad"},{"input":["generator_hosoda/conv02_1/Pad","generator_hosoda/conv02_1/kernel"],"attr":{"padding":{"s":[86,65,76,73,68]},"dilations":{"list":{"s":[],"i":["1","1","1","1"],"f":[],"b":[],"type":[],"shape":[],"tensor":[],"func":[]}},"T":{"type":1},"data_format":{"s":[78,72,87,67]},"strides":{"list":{"s":[],"i":["1","2","2","1"],"f":[],"b":[],"type":[],"shape":[],"tensor":[],"func":[]}},"use_cudnn_on_gpu":{"b":true}},"name":"generator_hosoda/conv02_1/Conv2D","op":"Conv2D"},{"input":["generator_hosoda/conv02_1/Conv2D","generator_hosoda/conv02_1/bias"],"attr":{"data_format":{"s":[78,72,87,67]},"T":{"type":1}},"name":"generator_hosoda/conv02_1/BiasAdd","op":"BiasAdd"},{"input":["generator_hosoda/conv02_1/BiasAdd","generator_hosoda/Pad_15/paddings"],"attr":{"T":{"type":1},"Tpaddings":{"type":3}},"name":"generator_hosoda/conv02_2/Pad","op":"Pad"},{"input":["generator_hosoda/conv02_2/Pad","generator_hosoda/conv02_2/kernel"],"attr":{"padding":{"s":[86,65,76,73,68]},"dilations":{"list":{"s":[],"i":["1","1","1","1"],"f":[],"b":[],"type":[],"shape":[],"tensor":[],"func":[]}},"T":{"type":1},"strides":{"list":{"s":[],"i":["1","1","1","1"],"f":[],"b":[],"type":[],"shape":[],"tensor":[],"func":[]}},"data_format":{"s":[78,72,87,67]},"use_cudnn_on_gpu":{"b":true}},"name":"generator_hosoda/conv02_2/Conv2D","op":"Conv2D"},{"input":["generator_hosoda/conv02_2/Conv2D","generator_hosoda/conv02_2/bias"],"attr":{"data_format":{"s":[78,72,87,67]},"T":{"type":1}},"name":"generator_hosoda/conv02_2/BiasAdd","op":"BiasAdd"},{"input":["generator_hosoda/conv02_2/BiasAdd","generator_hosoda/in11_1/moments/mean/reduction_indices"],"attr":{"Tidx":{"type":3},"keep_dims":{"b":true},"T":{"type":1}},"name":"generator_hosoda/in02_1/moments/mean","op":"Mean"},{"input":["generator_hosoda/conv02_2/BiasAdd","generator_hosoda/in02_1/moments/mean"],"attr":{"T":{"type":1}},"name":"generator_hosoda/in02_1/moments/SquaredDifference","op":"SquaredDifference"},{"input":["generator_hosoda/in02_1/moments/SquaredDifference","generator_hosoda/in11_1/moments/mean/reduction_indices"],"attr":{"Tidx":{"type":3},"keep_dims":{"b":true},"T":{"type":1}},"name":"generator_hosoda/in02_1/moments/variance","op":"Mean"},{"input":["generator_hosoda/in02_1/moments/variance","generator_hosoda/in11_1/instancenorm/add/y"],"attr":{"T":{"type":1}},"name":"generator_hosoda/in02_1/instancenorm/add","op":"Add"},{"input":["generator_hosoda/in02_1/instancenorm/add"],"attr":{"T":{"type":1}},"name":"generator_hosoda/in02_1/instancenorm/Rsqrt","op":"Rsqrt"},{"input":["generator_hosoda/in02_1/instancenorm/Rsqrt","generator_hosoda/in02_1/gamma"],"attr":{"T":{"type":1}},"name":"generator_hosoda/in02_1/instancenorm/mul","op":"Mul"},{"input":["generator_hosoda/conv02_2/BiasAdd","generator_hosoda/in02_1/instancenorm/mul"],"attr":{"T":{"type":1}},"name":"generator_hosoda/in02_1/instancenorm/mul_1","op":"Mul"},{"input":["generator_hosoda/in02_1/moments/mean","generator_hosoda/in02_1/instancenorm/mul"],"attr":{"T":{"type":1}},"name":"generator_hosoda/in02_1/instancenorm/mul_2","op":"Mul"},{"input":["generator_hosoda/in02_1/beta","generator_hosoda/in02_1/instancenorm/mul_2"],"attr":{"T":{"type":1}},"name":"generator_hosoda/in02_1/instancenorm/sub","op":"Sub"},{"input":["generator_hosoda/in02_1/instancenorm/mul_1","generator_hosoda/in02_1/instancenorm/sub"],"attr":{"T":{"type":1}},"name":"generator_hosoda/in02_1/instancenorm/add_1","op":"Add"},{"input":["generator_hosoda/in02_1/instancenorm/add_1"],"attr":{"T":{"type":1}},"name":"generator_hosoda/Relu_1","op":"Relu"},{"input":["generator_hosoda/Relu_1","generator_hosoda/Pad_15/paddings"],"attr":{"Tpaddings":{"type":3},"T":{"type":1}},"name":"generator_hosoda/conv03_1/Pad","op":"Pad"},{"input":["generator_hosoda/conv03_1/Pad","generator_hosoda/conv03_1/kernel"],"attr":{"dilations":{"list":{"s":[],"i":["1","1","1","1"],"f":[],"b":[],"type":[],"shape":[],"tensor":[],"func":[]}},"T":{"type":1},"strides":{"list":{"s":[],"i":["1","2","2","1"],"f":[],"b":[],"type":[],"shape":[],"tensor":[],"func":[]}},"data_format":{"s":[78,72,87,67]},"use_cudnn_on_gpu":{"b":true},"padding":{"s":[86,65,76,73,68]}},"name":"generator_hosoda/conv03_1/Conv2D","op":"Conv2D"},{"input":["generator_hosoda/conv03_1/Conv2D","generator_hosoda/conv03_1/bias"],"attr":{"data_format":{"s":[78,72,87,67]},"T":{"type":1}},"name":"generator_hosoda/conv03_1/BiasAdd","op":"BiasAdd"},{"input":["generator_hosoda/conv03_1/BiasAdd","generator_hosoda/Pad_15/paddings"],"attr":{"T":{"type":1},"Tpaddings":{"type":3}},"name":"generator_hosoda/conv03_2/Pad","op":"Pad"},{"input":["generator_hosoda/conv03_2/Pad","generator_hosoda/conv03_2/kernel"],"attr":{"padding":{"s":[86,65,76,73,68]},"dilations":{"list":{"s":[],"i":["1","1","1","1"],"f":[],"b":[],"type":[],"shape":[],"tensor":[],"func":[]}},"T":{"type":1},"data_format":{"s":[78,72,87,67]},"strides":{"list":{"s":[],"i":["1","1","1","1"],"f":[],"b":[],"type":[],"shape":[],"tensor":[],"func":[]}},"use_cudnn_on_gpu":{"b":true}},"name":"generator_hosoda/conv03_2/Conv2D","op":"Conv2D"},{"input":["generator_hosoda/conv03_2/Conv2D","generator_hosoda/conv03_2/bias"],"attr":{"T":{"type":1},"data_format":{"s":[78,72,87,67]}},"name":"generator_hosoda/conv03_2/BiasAdd","op":"BiasAdd"},{"input":["generator_hosoda/conv03_2/BiasAdd","generator_hosoda/in11_1/moments/mean/reduction_indices"],"attr":{"T":{"type":1},"Tidx":{"type":3},"keep_dims":{"b":true}},"name":"generator_hosoda/in03_1/moments/mean","op":"Mean"},{"input":["generator_hosoda/conv03_2/BiasAdd","generator_hosoda/in03_1/moments/mean"],"attr":{"T":{"type":1}},"name":"generator_hosoda/in03_1/moments/SquaredDifference","op":"SquaredDifference"},{"input":["generator_hosoda/in03_1/moments/SquaredDifference","generator_hosoda/in11_1/moments/mean/reduction_indices"],"attr":{"Tidx":{"type":3},"keep_dims":{"b":true},"T":{"type":1}},"name":"generator_hosoda/in03_1/moments/variance","op":"Mean"},{"input":["generator_hosoda/in03_1/moments/variance","generator_hosoda/in11_1/instancenorm/add/y"],"attr":{"T":{"type":1}},"name":"generator_hosoda/in03_1/instancenorm/add","op":"Add"},{"input":["generator_hosoda/in03_1/instancenorm/add"],"attr":{"T":{"type":1}},"name":"generator_hosoda/in03_1/instancenorm/Rsqrt","op":"Rsqrt"},{"input":["generator_hosoda/in03_1/instancenorm/Rsqrt","generator_hosoda/in03_1/gamma"],"attr":{"T":{"type":1}},"name":"generator_hosoda/in03_1/instancenorm/mul","op":"Mul"},{"input":["generator_hosoda/conv03_2/BiasAdd","generator_hosoda/in03_1/instancenorm/mul"],"attr":{"T":{"type":1}},"name":"generator_hosoda/in03_1/instancenorm/mul_1","op":"Mul"},{"input":["generator_hosoda/in03_1/moments/mean","generator_hosoda/in03_1/instancenorm/mul"],"attr":{"T":{"type":1}},"name":"generator_hosoda/in03_1/instancenorm/mul_2","op":"Mul"},{"input":["generator_hosoda/in03_1/beta","generator_hosoda/in03_1/instancenorm/mul_2"],"attr":{"T":{"type":1}},"name":"generator_hosoda/in03_1/instancenorm/sub","op":"Sub"},{"input":["generator_hosoda/in03_1/instancenorm/mul_1","generator_hosoda/in03_1/instancenorm/sub"],"attr":{"T":{"type":1}},"name":"generator_hosoda/in03_1/instancenorm/add_1","op":"Add"},{"input":["generator_hosoda/in03_1/instancenorm/add_1"],"attr":{"T":{"type":1}},"name":"generator_hosoda/Relu_2","op":"Relu"},{"input":["generator_hosoda/Relu_2","generator_hosoda/Pad_15/paddings"],"attr":{"T":{"type":1},"Tpaddings":{"type":3}},"name":"generator_hosoda/Pad_1","op":"Pad"},{"input":["generator_hosoda/Pad_1","generator_hosoda/conv04_1/kernel"],"attr":{"strides":{"list":{"s":[],"i":["1","1","1","1"],"f":[],"b":[],"type":[],"shape":[],"tensor":[],"func":[]}},"data_format":{"s":[78,72,87,67]},"use_cudnn_on_gpu":{"b":true},"padding":{"s":[86,65,76,73,68]},"dilations":{"list":{"s":[],"i":["1","1","1","1"],"f":[],"b":[],"type":[],"shape":[],"tensor":[],"func":[]}},"T":{"type":1}},"name":"generator_hosoda/conv04_1/Conv2D","op":"Conv2D"},{"input":["generator_hosoda/conv04_1/Conv2D","generator_hosoda/conv04_1/bias"],"attr":{"T":{"type":1},"data_format":{"s":[78,72,87,67]}},"name":"generator_hosoda/conv04_1/BiasAdd","op":"BiasAdd"},{"input":["generator_hosoda/conv04_1/BiasAdd","generator_hosoda/in11_1/moments/mean/reduction_indices"],"attr":{"T":{"type":1},"Tidx":{"type":3},"keep_dims":{"b":true}},"name":"generator_hosoda/in04_1/moments/mean","op":"Mean"},{"input":["generator_hosoda/conv04_1/BiasAdd","generator_hosoda/in04_1/moments/mean"],"attr":{"T":{"type":1}},"name":"generator_hosoda/in04_1/moments/SquaredDifference","op":"SquaredDifference"},{"input":["generator_hosoda/in04_1/moments/SquaredDifference","generator_hosoda/in11_1/moments/mean/reduction_indices"],"attr":{"T":{"type":1},"Tidx":{"type":3},"keep_dims":{"b":true}},"name":"generator_hosoda/in04_1/moments/variance","op":"Mean"},{"input":["generator_hosoda/in04_1/moments/variance","generator_hosoda/in11_1/instancenorm/add/y"],"attr":{"T":{"type":1}},"name":"generator_hosoda/in04_1/instancenorm/add","op":"Add"},{"input":["generator_hosoda/in04_1/instancenorm/add"],"attr":{"T":{"type":1}},"name":"generator_hosoda/in04_1/instancenorm/Rsqrt","op":"Rsqrt"},{"input":["generator_hosoda/in04_1/instancenorm/Rsqrt","generator_hosoda/in04_1/gamma"],"attr":{"T":{"type":1}},"name":"generator_hosoda/in04_1/instancenorm/mul","op":"Mul"},{"input":["generator_hosoda/conv04_1/BiasAdd","generator_hosoda/in04_1/instancenorm/mul"],"attr":{"T":{"type":1}},"name":"generator_hosoda/in04_1/instancenorm/mul_1","op":"Mul"},{"input":["generator_hosoda/in04_1/moments/mean","generator_hosoda/in04_1/instancenorm/mul"],"attr":{"T":{"type":1}},"name":"generator_hosoda/in04_1/instancenorm/mul_2","op":"Mul"},{"input":["generator_hosoda/in04_1/beta","generator_hosoda/in04_1/instancenorm/mul_2"],"attr":{"T":{"type":1}},"name":"generator_hosoda/in04_1/instancenorm/sub","op":"Sub"},{"input":["generator_hosoda/in04_1/instancenorm/mul_1","generator_hosoda/in04_1/instancenorm/sub"],"attr":{"T":{"type":1}},"name":"generator_hosoda/in04_1/instancenorm/add_1","op":"Add"},{"input":["generator_hosoda/in04_1/instancenorm/add_1"],"attr":{"T":{"type":1}},"name":"generator_hosoda/Relu_3","op":"Relu"},{"input":["generator_hosoda/Relu_3","generator_hosoda/Pad_15/paddings"],"attr":{"T":{"type":1},"Tpaddings":{"type":3}},"name":"generator_hosoda/Pad_2","op":"Pad"},{"input":["generator_hosoda/Pad_2","generator_hosoda/conv04_2/kernel"],"attr":{"padding":{"s":[86,65,76,73,68]},"dilations":{"list":{"s":[],"i":["1","1","1","1"],"f":[],"b":[],"type":[],"shape":[],"tensor":[],"func":[]}},"T":{"type":1},"data_format":{"s":[78,72,87,67]},"strides":{"list":{"s":[],"i":["1","1","1","1"],"f":[],"b":[],"type":[],"shape":[],"tensor":[],"func":[]}},"use_cudnn_on_gpu":{"b":true}},"name":"generator_hosoda/conv04_2/Conv2D","op":"Conv2D"},{"input":["generator_hosoda/conv04_2/Conv2D","generator_hosoda/conv04_2/bias"],"attr":{"data_format":{"s":[78,72,87,67]},"T":{"type":1}},"name":"generator_hosoda/conv04_2/BiasAdd","op":"BiasAdd"},{"input":["generator_hosoda/conv04_2/BiasAdd","generator_hosoda/in11_1/moments/mean/reduction_indices"],"attr":{"Tidx":{"type":3},"keep_dims":{"b":true},"T":{"type":1}},"name":"generator_hosoda/in04_2/moments/mean","op":"Mean"},{"input":["generator_hosoda/conv04_2/BiasAdd","generator_hosoda/in04_2/moments/mean"],"attr":{"T":{"type":1}},"name":"generator_hosoda/in04_2/moments/SquaredDifference","op":"SquaredDifference"},{"input":["generator_hosoda/in04_2/moments/SquaredDifference","generator_hosoda/in11_1/moments/mean/reduction_indices"],"attr":{"T":{"type":1},"Tidx":{"type":3},"keep_dims":{"b":true}},"name":"generator_hosoda/in04_2/moments/variance","op":"Mean"},{"input":["generator_hosoda/in04_2/moments/variance","generator_hosoda/in11_1/instancenorm/add/y"],"attr":{"T":{"type":1}},"name":"generator_hosoda/in04_2/instancenorm/add","op":"Add"},{"input":["generator_hosoda/in04_2/instancenorm/add"],"attr":{"T":{"type":1}},"name":"generator_hosoda/in04_2/instancenorm/Rsqrt","op":"Rsqrt"},{"input":["generator_hosoda/in04_2/instancenorm/Rsqrt","generator_hosoda/in04_2/gamma"],"attr":{"T":{"type":1}},"name":"generator_hosoda/in04_2/instancenorm/mul","op":"Mul"},{"input":["generator_hosoda/conv04_2/BiasAdd","generator_hosoda/in04_2/instancenorm/mul"],"attr":{"T":{"type":1}},"name":"generator_hosoda/in04_2/instancenorm/mul_1","op":"Mul"},{"input":["generator_hosoda/in04_2/moments/mean","generator_hosoda/in04_2/instancenorm/mul"],"attr":{"T":{"type":1}},"name":"generator_hosoda/in04_2/instancenorm/mul_2","op":"Mul"},{"input":["generator_hosoda/in04_2/beta","generator_hosoda/in04_2/instancenorm/mul_2"],"attr":{"T":{"type":1}},"name":"generator_hosoda/in04_2/instancenorm/sub","op":"Sub"},{"input":["generator_hosoda/in04_2/instancenorm/mul_1","generator_hosoda/in04_2/instancenorm/sub"],"attr":{"T":{"type":1}},"name":"generator_hosoda/in04_2/instancenorm/add_1","op":"Add"},{"input":["generator_hosoda/in04_2/instancenorm/add_1","generator_hosoda/Relu_2"],"attr":{"T":{"type":1}},"name":"generator_hosoda/add","op":"Add"},{"input":["generator_hosoda/add","generator_hosoda/Pad_15/paddings"],"attr":{"T":{"type":1},"Tpaddings":{"type":3}},"name":"generator_hosoda/Pad_3","op":"Pad"},{"input":["generator_hosoda/Pad_3","generator_hosoda/conv05_1/kernel"],"attr":{"dilations":{"list":{"s":[],"i":["1","1","1","1"],"f":[],"b":[],"type":[],"shape":[],"tensor":[],"func":[]}},"T":{"type":1},"strides":{"list":{"s":[],"i":["1","1","1","1"],"f":[],"b":[],"type":[],"shape":[],"tensor":[],"func":[]}},"data_format":{"s":[78,72,87,67]},"use_cudnn_on_gpu":{"b":true},"padding":{"s":[86,65,76,73,68]}},"name":"generator_hosoda/conv05_1/Conv2D","op":"Conv2D"},{"input":["generator_hosoda/conv05_1/Conv2D","generator_hosoda/conv05_1/bias"],"attr":{"T":{"type":1},"data_format":{"s":[78,72,87,67]}},"name":"generator_hosoda/conv05_1/BiasAdd","op":"BiasAdd"},{"input":["generator_hosoda/conv05_1/BiasAdd","generator_hosoda/in11_1/moments/mean/reduction_indices"],"attr":{"T":{"type":1},"Tidx":{"type":3},"keep_dims":{"b":true}},"name":"generator_hosoda/in05_1/moments/mean","op":"Mean"},{"input":["generator_hosoda/conv05_1/BiasAdd","generator_hosoda/in05_1/moments/mean"],"attr":{"T":{"type":1}},"name":"generator_hosoda/in05_1/moments/SquaredDifference","op":"SquaredDifference"},{"input":["generator_hosoda/in05_1/moments/SquaredDifference","generator_hosoda/in11_1/moments/mean/reduction_indices"],"attr":{"Tidx":{"type":3},"keep_dims":{"b":true},"T":{"type":1}},"name":"generator_hosoda/in05_1/moments/variance","op":"Mean"},{"input":["generator_hosoda/in05_1/moments/variance","generator_hosoda/in11_1/instancenorm/add/y"],"attr":{"T":{"type":1}},"name":"generator_hosoda/in05_1/instancenorm/add","op":"Add"},{"input":["generator_hosoda/in05_1/instancenorm/add"],"attr":{"T":{"type":1}},"name":"generator_hosoda/in05_1/instancenorm/Rsqrt","op":"Rsqrt"},{"input":["generator_hosoda/in05_1/instancenorm/Rsqrt","generator_hosoda/in05_1/gamma"],"attr":{"T":{"type":1}},"name":"generator_hosoda/in05_1/instancenorm/mul","op":"Mul"},{"input":["generator_hosoda/conv05_1/BiasAdd","generator_hosoda/in05_1/instancenorm/mul"],"attr":{"T":{"type":1}},"name":"generator_hosoda/in05_1/instancenorm/mul_1","op":"Mul"},{"input":["generator_hosoda/in05_1/moments/mean","generator_hosoda/in05_1/instancenorm/mul"],"attr":{"T":{"type":1}},"name":"generator_hosoda/in05_1/instancenorm/mul_2","op":"Mul"},{"input":["generator_hosoda/in05_1/beta","generator_hosoda/in05_1/instancenorm/mul_2"],"attr":{"T":{"type":1}},"name":"generator_hosoda/in05_1/instancenorm/sub","op":"Sub"},{"input":["generator_hosoda/in05_1/instancenorm/mul_1","generator_hosoda/in05_1/instancenorm/sub"],"attr":{"T":{"type":1}},"name":"generator_hosoda/in05_1/instancenorm/add_1","op":"Add"},{"input":["generator_hosoda/in05_1/instancenorm/add_1"],"attr":{"T":{"type":1}},"name":"generator_hosoda/Relu_4","op":"Relu"},{"input":["generator_hosoda/Relu_4","generator_hosoda/Pad_15/paddings"],"attr":{"T":{"type":1},"Tpaddings":{"type":3}},"name":"generator_hosoda/Pad_4","op":"Pad"},{"input":["generator_hosoda/Pad_4","generator_hosoda/conv05_2/kernel"],"attr":{"dilations":{"list":{"s":[],"i":["1","1","1","1"],"f":[],"b":[],"type":[],"shape":[],"tensor":[],"func":[]}},"T":{"type":1},"strides":{"list":{"s":[],"i":["1","1","1","1"],"f":[],"b":[],"type":[],"shape":[],"tensor":[],"func":[]}},"data_format":{"s":[78,72,87,67]},"use_cudnn_on_gpu":{"b":true},"padding":{"s":[86,65,76,73,68]}},"name":"generator_hosoda/conv05_2/Conv2D","op":"Conv2D"},{"input":["generator_hosoda/conv05_2/Conv2D","generator_hosoda/conv05_2/bias"],"attr":{"T":{"type":1},"data_format":{"s":[78,72,87,67]}},"name":"generator_hosoda/conv05_2/BiasAdd","op":"BiasAdd"},{"input":["generator_hosoda/conv05_2/BiasAdd","generator_hosoda/in11_1/moments/mean/reduction_indices"],"attr":{"T":{"type":1},"Tidx":{"type":3},"keep_dims":{"b":true}},"name":"generator_hosoda/in05_2/moments/mean","op":"Mean"},{"input":["generator_hosoda/conv05_2/BiasAdd","generator_hosoda/in05_2/moments/mean"],"attr":{"T":{"type":1}},"name":"generator_hosoda/in05_2/moments/SquaredDifference","op":"SquaredDifference"},{"input":["generator_hosoda/in05_2/moments/SquaredDifference","generator_hosoda/in11_1/moments/mean/reduction_indices"],"attr":{"Tidx":{"type":3},"keep_dims":{"b":true},"T":{"type":1}},"name":"generator_hosoda/in05_2/moments/variance","op":"Mean"},{"input":["generator_hosoda/in05_2/moments/variance","generator_hosoda/in11_1/instancenorm/add/y"],"attr":{"T":{"type":1}},"name":"generator_hosoda/in05_2/instancenorm/add","op":"Add"},{"input":["generator_hosoda/in05_2/instancenorm/add"],"attr":{"T":{"type":1}},"name":"generator_hosoda/in05_2/instancenorm/Rsqrt","op":"Rsqrt"},{"input":["generator_hosoda/in05_2/instancenorm/Rsqrt","generator_hosoda/in05_2/gamma"],"attr":{"T":{"type":1}},"name":"generator_hosoda/in05_2/instancenorm/mul","op":"Mul"},{"input":["generator_hosoda/conv05_2/BiasAdd","generator_hosoda/in05_2/instancenorm/mul"],"attr":{"T":{"type":1}},"name":"generator_hosoda/in05_2/instancenorm/mul_1","op":"Mul"},{"input":["generator_hosoda/in05_2/moments/mean","generator_hosoda/in05_2/instancenorm/mul"],"attr":{"T":{"type":1}},"name":"generator_hosoda/in05_2/instancenorm/mul_2","op":"Mul"},{"input":["generator_hosoda/in05_2/beta","generator_hosoda/in05_2/instancenorm/mul_2"],"attr":{"T":{"type":1}},"name":"generator_hosoda/in05_2/instancenorm/sub","op":"Sub"},{"input":["generator_hosoda/in05_2/instancenorm/mul_1","generator_hosoda/in05_2/instancenorm/sub"],"attr":{"T":{"type":1}},"name":"generator_hosoda/in05_2/instancenorm/add_1","op":"Add"},{"input":["generator_hosoda/in05_2/instancenorm/add_1","generator_hosoda/add"],"attr":{"T":{"type":1}},"name":"generator_hosoda/add_1","op":"Add"},{"input":["generator_hosoda/add_1","generator_hosoda/Pad_15/paddings"],"attr":{"T":{"type":1},"Tpaddings":{"type":3}},"name":"generator_hosoda/Pad_5","op":"Pad"},{"input":["generator_hosoda/Pad_5","generator_hosoda/conv06_1/kernel"],"attr":{"padding":{"s":[86,65,76,73,68]},"dilations":{"list":{"s":[],"i":["1","1","1","1"],"f":[],"b":[],"type":[],"shape":[],"tensor":[],"func":[]}},"T":{"type":1},"data_format":{"s":[78,72,87,67]},"strides":{"list":{"s":[],"i":["1","1","1","1"],"f":[],"b":[],"type":[],"shape":[],"tensor":[],"func":[]}},"use_cudnn_on_gpu":{"b":true}},"name":"generator_hosoda/conv06_1/Conv2D","op":"Conv2D"},{"input":["generator_hosoda/conv06_1/Conv2D","generator_hosoda/conv06_1/bias"],"attr":{"T":{"type":1},"data_format":{"s":[78,72,87,67]}},"name":"generator_hosoda/conv06_1/BiasAdd","op":"BiasAdd"},{"input":["generator_hosoda/conv06_1/BiasAdd","generator_hosoda/in11_1/moments/mean/reduction_indices"],"attr":{"T":{"type":1},"Tidx":{"type":3},"keep_dims":{"b":true}},"name":"generator_hosoda/in06_1/moments/mean","op":"Mean"},{"input":["generator_hosoda/conv06_1/BiasAdd","generator_hosoda/in06_1/moments/mean"],"attr":{"T":{"type":1}},"name":"generator_hosoda/in06_1/moments/SquaredDifference","op":"SquaredDifference"},{"input":["generator_hosoda/in06_1/moments/SquaredDifference","generator_hosoda/in11_1/moments/mean/reduction_indices"],"attr":{"T":{"type":1},"Tidx":{"type":3},"keep_dims":{"b":true}},"name":"generator_hosoda/in06_1/moments/variance","op":"Mean"},{"input":["generator_hosoda/in06_1/moments/variance","generator_hosoda/in11_1/instancenorm/add/y"],"attr":{"T":{"type":1}},"name":"generator_hosoda/in06_1/instancenorm/add","op":"Add"},{"input":["generator_hosoda/in06_1/instancenorm/add"],"attr":{"T":{"type":1}},"name":"generator_hosoda/in06_1/instancenorm/Rsqrt","op":"Rsqrt"},{"input":["generator_hosoda/in06_1/instancenorm/Rsqrt","generator_hosoda/in06_1/gamma"],"attr":{"T":{"type":1}},"name":"generator_hosoda/in06_1/instancenorm/mul","op":"Mul"},{"input":["generator_hosoda/conv06_1/BiasAdd","generator_hosoda/in06_1/instancenorm/mul"],"attr":{"T":{"type":1}},"name":"generator_hosoda/in06_1/instancenorm/mul_1","op":"Mul"},{"input":["generator_hosoda/in06_1/moments/mean","generator_hosoda/in06_1/instancenorm/mul"],"attr":{"T":{"type":1}},"name":"generator_hosoda/in06_1/instancenorm/mul_2","op":"Mul"},{"input":["generator_hosoda/in06_1/beta","generator_hosoda/in06_1/instancenorm/mul_2"],"attr":{"T":{"type":1}},"name":"generator_hosoda/in06_1/instancenorm/sub","op":"Sub"},{"input":["generator_hosoda/in06_1/instancenorm/mul_1","generator_hosoda/in06_1/instancenorm/sub"],"attr":{"T":{"type":1}},"name":"generator_hosoda/in06_1/instancenorm/add_1","op":"Add"},{"input":["generator_hosoda/in06_1/instancenorm/add_1"],"attr":{"T":{"type":1}},"name":"generator_hosoda/Relu_5","op":"Relu"},{"input":["generator_hosoda/Relu_5","generator_hosoda/Pad_15/paddings"],"attr":{"T":{"type":1},"Tpaddings":{"type":3}},"name":"generator_hosoda/Pad_6","op":"Pad"},{"input":["generator_hosoda/Pad_6","generator_hosoda/conv06_2/kernel"],"attr":{"T":{"type":1},"strides":{"list":{"s":[],"i":["1","1","1","1"],"f":[],"b":[],"type":[],"shape":[],"tensor":[],"func":[]}},"data_format":{"s":[78,72,87,67]},"use_cudnn_on_gpu":{"b":true},"padding":{"s":[86,65,76,73,68]},"dilations":{"list":{"s":[],"i":["1","1","1","1"],"f":[],"b":[],"type":[],"shape":[],"tensor":[],"func":[]}}},"name":"generator_hosoda/conv06_2/Conv2D","op":"Conv2D"},{"input":["generator_hosoda/conv06_2/Conv2D","generator_hosoda/conv06_2/bias"],"attr":{"T":{"type":1},"data_format":{"s":[78,72,87,67]}},"name":"generator_hosoda/conv06_2/BiasAdd","op":"BiasAdd"},{"input":["generator_hosoda/conv06_2/BiasAdd","generator_hosoda/in11_1/moments/mean/reduction_indices"],"attr":{"Tidx":{"type":3},"keep_dims":{"b":true},"T":{"type":1}},"name":"generator_hosoda/in06_2/moments/mean","op":"Mean"},{"input":["generator_hosoda/conv06_2/BiasAdd","generator_hosoda/in06_2/moments/mean"],"attr":{"T":{"type":1}},"name":"generator_hosoda/in06_2/moments/SquaredDifference","op":"SquaredDifference"},{"input":["generator_hosoda/in06_2/moments/SquaredDifference","generator_hosoda/in11_1/moments/mean/reduction_indices"],"attr":{"Tidx":{"type":3},"keep_dims":{"b":true},"T":{"type":1}},"name":"generator_hosoda/in06_2/moments/variance","op":"Mean"},{"input":["generator_hosoda/in06_2/moments/variance","generator_hosoda/in11_1/instancenorm/add/y"],"attr":{"T":{"type":1}},"name":"generator_hosoda/in06_2/instancenorm/add","op":"Add"},{"input":["generator_hosoda/in06_2/instancenorm/add"],"attr":{"T":{"type":1}},"name":"generator_hosoda/in06_2/instancenorm/Rsqrt","op":"Rsqrt"},{"input":["generator_hosoda/in06_2/instancenorm/Rsqrt","generator_hosoda/in06_2/gamma"],"attr":{"T":{"type":1}},"name":"generator_hosoda/in06_2/instancenorm/mul","op":"Mul"},{"input":["generator_hosoda/conv06_2/BiasAdd","generator_hosoda/in06_2/instancenorm/mul"],"attr":{"T":{"type":1}},"name":"generator_hosoda/in06_2/instancenorm/mul_1","op":"Mul"},{"input":["generator_hosoda/in06_2/moments/mean","generator_hosoda/in06_2/instancenorm/mul"],"attr":{"T":{"type":1}},"name":"generator_hosoda/in06_2/instancenorm/mul_2","op":"Mul"},{"input":["generator_hosoda/in06_2/beta","generator_hosoda/in06_2/instancenorm/mul_2"],"attr":{"T":{"type":1}},"name":"generator_hosoda/in06_2/instancenorm/sub","op":"Sub"},{"input":["generator_hosoda/in06_2/instancenorm/mul_1","generator_hosoda/in06_2/instancenorm/sub"],"attr":{"T":{"type":1}},"name":"generator_hosoda/in06_2/instancenorm/add_1","op":"Add"},{"input":["generator_hosoda/in06_2/instancenorm/add_1","generator_hosoda/add_1"],"attr":{"T":{"type":1}},"name":"generator_hosoda/add_2","op":"Add"},{"input":["generator_hosoda/add_2","generator_hosoda/Pad_15/paddings"],"attr":{"T":{"type":1},"Tpaddings":{"type":3}},"name":"generator_hosoda/Pad_7","op":"Pad"},{"input":["generator_hosoda/Pad_7","generator_hosoda/conv07_1/kernel"],"attr":{"data_format":{"s":[78,72,87,67]},"strides":{"list":{"s":[],"i":["1","1","1","1"],"f":[],"b":[],"type":[],"shape":[],"tensor":[],"func":[]}},"use_cudnn_on_gpu":{"b":true},"padding":{"s":[86,65,76,73,68]},"dilations":{"list":{"s":[],"i":["1","1","1","1"],"f":[],"b":[],"type":[],"shape":[],"tensor":[],"func":[]}},"T":{"type":1}},"name":"generator_hosoda/conv07_1/Conv2D","op":"Conv2D"},{"input":["generator_hosoda/conv07_1/Conv2D","generator_hosoda/conv07_1/bias"],"attr":{"T":{"type":1},"data_format":{"s":[78,72,87,67]}},"name":"generator_hosoda/conv07_1/BiasAdd","op":"BiasAdd"},{"input":["generator_hosoda/conv07_1/BiasAdd","generator_hosoda/in11_1/moments/mean/reduction_indices"],"attr":{"Tidx":{"type":3},"keep_dims":{"b":true},"T":{"type":1}},"name":"generator_hosoda/in07_1/moments/mean","op":"Mean"},{"input":["generator_hosoda/conv07_1/BiasAdd","generator_hosoda/in07_1/moments/mean"],"attr":{"T":{"type":1}},"name":"generator_hosoda/in07_1/moments/SquaredDifference","op":"SquaredDifference"},{"input":["generator_hosoda/in07_1/moments/SquaredDifference","generator_hosoda/in11_1/moments/mean/reduction_indices"],"attr":{"T":{"type":1},"Tidx":{"type":3},"keep_dims":{"b":true}},"name":"generator_hosoda/in07_1/moments/variance","op":"Mean"},{"input":["generator_hosoda/in07_1/moments/variance","generator_hosoda/in11_1/instancenorm/add/y"],"attr":{"T":{"type":1}},"name":"generator_hosoda/in07_1/instancenorm/add","op":"Add"},{"input":["generator_hosoda/in07_1/instancenorm/add"],"attr":{"T":{"type":1}},"name":"generator_hosoda/in07_1/instancenorm/Rsqrt","op":"Rsqrt"},{"input":["generator_hosoda/in07_1/instancenorm/Rsqrt","generator_hosoda/in07_1/gamma"],"attr":{"T":{"type":1}},"name":"generator_hosoda/in07_1/instancenorm/mul","op":"Mul"},{"input":["generator_hosoda/conv07_1/BiasAdd","generator_hosoda/in07_1/instancenorm/mul"],"attr":{"T":{"type":1}},"name":"generator_hosoda/in07_1/instancenorm/mul_1","op":"Mul"},{"input":["generator_hosoda/in07_1/moments/mean","generator_hosoda/in07_1/instancenorm/mul"],"attr":{"T":{"type":1}},"name":"generator_hosoda/in07_1/instancenorm/mul_2","op":"Mul"},{"input":["generator_hosoda/in07_1/beta","generator_hosoda/in07_1/instancenorm/mul_2"],"attr":{"T":{"type":1}},"name":"generator_hosoda/in07_1/instancenorm/sub","op":"Sub"},{"input":["generator_hosoda/in07_1/instancenorm/mul_1","generator_hosoda/in07_1/instancenorm/sub"],"attr":{"T":{"type":1}},"name":"generator_hosoda/in07_1/instancenorm/add_1","op":"Add"},{"input":["generator_hosoda/in07_1/instancenorm/add_1"],"attr":{"T":{"type":1}},"name":"generator_hosoda/Relu_6","op":"Relu"},{"input":["generator_hosoda/Relu_6","generator_hosoda/Pad_15/paddings"],"attr":{"T":{"type":1},"Tpaddings":{"type":3}},"name":"generator_hosoda/Pad_8","op":"Pad"},{"input":["generator_hosoda/Pad_8","generator_hosoda/conv07_2/kernel"],"attr":{"dilations":{"list":{"s":[],"i":["1","1","1","1"],"f":[],"b":[],"type":[],"shape":[],"tensor":[],"func":[]}},"T":{"type":1},"strides":{"list":{"s":[],"i":["1","1","1","1"],"f":[],"b":[],"type":[],"shape":[],"tensor":[],"func":[]}},"data_format":{"s":[78,72,87,67]},"use_cudnn_on_gpu":{"b":true},"padding":{"s":[86,65,76,73,68]}},"name":"generator_hosoda/conv07_2/Conv2D","op":"Conv2D"},{"input":["generator_hosoda/conv07_2/Conv2D","generator_hosoda/conv07_2/bias"],"attr":{"T":{"type":1},"data_format":{"s":[78,72,87,67]}},"name":"generator_hosoda/conv07_2/BiasAdd","op":"BiasAdd"},{"input":["generator_hosoda/conv07_2/BiasAdd","generator_hosoda/in11_1/moments/mean/reduction_indices"],"attr":{"Tidx":{"type":3},"keep_dims":{"b":true},"T":{"type":1}},"name":"generator_hosoda/in07_2/moments/mean","op":"Mean"},{"input":["generator_hosoda/conv07_2/BiasAdd","generator_hosoda/in07_2/moments/mean"],"attr":{"T":{"type":1}},"name":"generator_hosoda/in07_2/moments/SquaredDifference","op":"SquaredDifference"},{"input":["generator_hosoda/in07_2/moments/SquaredDifference","generator_hosoda/in11_1/moments/mean/reduction_indices"],"attr":{"Tidx":{"type":3},"keep_dims":{"b":true},"T":{"type":1}},"name":"generator_hosoda/in07_2/moments/variance","op":"Mean"},{"input":["generator_hosoda/in07_2/moments/variance","generator_hosoda/in11_1/instancenorm/add/y"],"attr":{"T":{"type":1}},"name":"generator_hosoda/in07_2/instancenorm/add","op":"Add"},{"input":["generator_hosoda/in07_2/instancenorm/add"],"attr":{"T":{"type":1}},"name":"generator_hosoda/in07_2/instancenorm/Rsqrt","op":"Rsqrt"},{"input":["generator_hosoda/in07_2/instancenorm/Rsqrt","generator_hosoda/in07_2/gamma"],"attr":{"T":{"type":1}},"name":"generator_hosoda/in07_2/instancenorm/mul","op":"Mul"},{"input":["generator_hosoda/conv07_2/BiasAdd","generator_hosoda/in07_2/instancenorm/mul"],"attr":{"T":{"type":1}},"name":"generator_hosoda/in07_2/instancenorm/mul_1","op":"Mul"},{"input":["generator_hosoda/in07_2/moments/mean","generator_hosoda/in07_2/instancenorm/mul"],"attr":{"T":{"type":1}},"name":"generator_hosoda/in07_2/instancenorm/mul_2","op":"Mul"},{"input":["generator_hosoda/in07_2/beta","generator_hosoda/in07_2/instancenorm/mul_2"],"attr":{"T":{"type":1}},"name":"generator_hosoda/in07_2/instancenorm/sub","op":"Sub"},{"input":["generator_hosoda/in07_2/instancenorm/mul_1","generator_hosoda/in07_2/instancenorm/sub"],"attr":{"T":{"type":1}},"name":"generator_hosoda/in07_2/instancenorm/add_1","op":"Add"},{"input":["generator_hosoda/in07_2/instancenorm/add_1","generator_hosoda/add_2"],"attr":{"T":{"type":1}},"name":"generator_hosoda/add_3","op":"Add"},{"input":["generator_hosoda/add_3","generator_hosoda/Pad_15/paddings"],"attr":{"Tpaddings":{"type":3},"T":{"type":1}},"name":"generator_hosoda/Pad_9","op":"Pad"},{"input":["generator_hosoda/Pad_9","generator_hosoda/conv08_1/kernel"],"attr":{"T":{"type":1},"data_format":{"s":[78,72,87,67]},"strides":{"list":{"s":[],"i":["1","1","1","1"],"f":[],"b":[],"type":[],"shape":[],"tensor":[],"func":[]}},"use_cudnn_on_gpu":{"b":true},"padding":{"s":[86,65,76,73,68]},"dilations":{"list":{"s":[],"i":["1","1","1","1"],"f":[],"b":[],"type":[],"shape":[],"tensor":[],"func":[]}}},"name":"generator_hosoda/conv08_1/Conv2D","op":"Conv2D"},{"input":["generator_hosoda/conv08_1/Conv2D","generator_hosoda/conv08_1/bias"],"attr":{"T":{"type":1},"data_format":{"s":[78,72,87,67]}},"name":"generator_hosoda/conv08_1/BiasAdd","op":"BiasAdd"},{"input":["generator_hosoda/conv08_1/BiasAdd","generator_hosoda/in11_1/moments/mean/reduction_indices"],"attr":{"T":{"type":1},"Tidx":{"type":3},"keep_dims":{"b":true}},"name":"generator_hosoda/in08_1/moments/mean","op":"Mean"},{"input":["generator_hosoda/conv08_1/BiasAdd","generator_hosoda/in08_1/moments/mean"],"attr":{"T":{"type":1}},"name":"generator_hosoda/in08_1/moments/SquaredDifference","op":"SquaredDifference"},{"input":["generator_hosoda/in08_1/moments/SquaredDifference","generator_hosoda/in11_1/moments/mean/reduction_indices"],"attr":{"Tidx":{"type":3},"keep_dims":{"b":true},"T":{"type":1}},"name":"generator_hosoda/in08_1/moments/variance","op":"Mean"},{"input":["generator_hosoda/in08_1/moments/variance","generator_hosoda/in11_1/instancenorm/add/y"],"attr":{"T":{"type":1}},"name":"generator_hosoda/in08_1/instancenorm/add","op":"Add"},{"input":["generator_hosoda/in08_1/instancenorm/add"],"attr":{"T":{"type":1}},"name":"generator_hosoda/in08_1/instancenorm/Rsqrt","op":"Rsqrt"},{"input":["generator_hosoda/in08_1/instancenorm/Rsqrt","generator_hosoda/in08_1/gamma"],"attr":{"T":{"type":1}},"name":"generator_hosoda/in08_1/instancenorm/mul","op":"Mul"},{"input":["generator_hosoda/conv08_1/BiasAdd","generator_hosoda/in08_1/instancenorm/mul"],"attr":{"T":{"type":1}},"name":"generator_hosoda/in08_1/instancenorm/mul_1","op":"Mul"},{"input":["generator_hosoda/in08_1/moments/mean","generator_hosoda/in08_1/instancenorm/mul"],"attr":{"T":{"type":1}},"name":"generator_hosoda/in08_1/instancenorm/mul_2","op":"Mul"},{"input":["generator_hosoda/in08_1/beta","generator_hosoda/in08_1/instancenorm/mul_2"],"attr":{"T":{"type":1}},"name":"generator_hosoda/in08_1/instancenorm/sub","op":"Sub"},{"input":["generator_hosoda/in08_1/instancenorm/mul_1","generator_hosoda/in08_1/instancenorm/sub"],"attr":{"T":{"type":1}},"name":"generator_hosoda/in08_1/instancenorm/add_1","op":"Add"},{"input":["generator_hosoda/in08_1/instancenorm/add_1"],"attr":{"T":{"type":1}},"name":"generator_hosoda/Relu_7","op":"Relu"},{"input":["generator_hosoda/Relu_7","generator_hosoda/Pad_15/paddings"],"attr":{"T":{"type":1},"Tpaddings":{"type":3}},"name":"generator_hosoda/Pad_10","op":"Pad"},{"input":["generator_hosoda/Pad_10","generator_hosoda/conv08_2/kernel"],"attr":{"padding":{"s":[86,65,76,73,68]},"dilations":{"list":{"s":[],"i":["1","1","1","1"],"f":[],"b":[],"type":[],"shape":[],"tensor":[],"func":[]}},"T":{"type":1},"strides":{"list":{"s":[],"i":["1","1","1","1"],"f":[],"b":[],"type":[],"shape":[],"tensor":[],"func":[]}},"data_format":{"s":[78,72,87,67]},"use_cudnn_on_gpu":{"b":true}},"name":"generator_hosoda/conv08_2/Conv2D","op":"Conv2D"},{"input":["generator_hosoda/conv08_2/Conv2D","generator_hosoda/conv08_2/bias"],"attr":{"T":{"type":1},"data_format":{"s":[78,72,87,67]}},"name":"generator_hosoda/conv08_2/BiasAdd","op":"BiasAdd"},{"input":["generator_hosoda/conv08_2/BiasAdd","generator_hosoda/in11_1/moments/mean/reduction_indices"],"attr":{"Tidx":{"type":3},"keep_dims":{"b":true},"T":{"type":1}},"name":"generator_hosoda/in08_2/moments/mean","op":"Mean"},{"input":["generator_hosoda/conv08_2/BiasAdd","generator_hosoda/in08_2/moments/mean"],"attr":{"T":{"type":1}},"name":"generator_hosoda/in08_2/moments/SquaredDifference","op":"SquaredDifference"},{"input":["generator_hosoda/in08_2/moments/SquaredDifference","generator_hosoda/in11_1/moments/mean/reduction_indices"],"attr":{"Tidx":{"type":3},"keep_dims":{"b":true},"T":{"type":1}},"name":"generator_hosoda/in08_2/moments/variance","op":"Mean"},{"input":["generator_hosoda/in08_2/moments/variance","generator_hosoda/in11_1/instancenorm/add/y"],"attr":{"T":{"type":1}},"name":"generator_hosoda/in08_2/instancenorm/add","op":"Add"},{"input":["generator_hosoda/in08_2/instancenorm/add"],"attr":{"T":{"type":1}},"name":"generator_hosoda/in08_2/instancenorm/Rsqrt","op":"Rsqrt"},{"input":["generator_hosoda/in08_2/instancenorm/Rsqrt","generator_hosoda/in08_2/gamma"],"attr":{"T":{"type":1}},"name":"generator_hosoda/in08_2/instancenorm/mul","op":"Mul"},{"input":["generator_hosoda/conv08_2/BiasAdd","generator_hosoda/in08_2/instancenorm/mul"],"attr":{"T":{"type":1}},"name":"generator_hosoda/in08_2/instancenorm/mul_1","op":"Mul"},{"input":["generator_hosoda/in08_2/moments/mean","generator_hosoda/in08_2/instancenorm/mul"],"attr":{"T":{"type":1}},"name":"generator_hosoda/in08_2/instancenorm/mul_2","op":"Mul"},{"input":["generator_hosoda/in08_2/beta","generator_hosoda/in08_2/instancenorm/mul_2"],"attr":{"T":{"type":1}},"name":"generator_hosoda/in08_2/instancenorm/sub","op":"Sub"},{"input":["generator_hosoda/in08_2/instancenorm/mul_1","generator_hosoda/in08_2/instancenorm/sub"],"attr":{"T":{"type":1}},"name":"generator_hosoda/in08_2/instancenorm/add_1","op":"Add"},{"input":["generator_hosoda/in08_2/instancenorm/add_1","generator_hosoda/add_3"],"attr":{"T":{"type":1}},"name":"generator_hosoda/add_4","op":"Add"},{"input":["generator_hosoda/add_4","generator_hosoda/Pad_15/paddings"],"attr":{"T":{"type":1},"Tpaddings":{"type":3}},"name":"generator_hosoda/Pad_11","op":"Pad"},{"input":["generator_hosoda/Pad_11","generator_hosoda/conv09_1/kernel"],"attr":{"strides":{"list":{"s":[],"i":["1","1","1","1"],"f":[],"b":[],"type":[],"shape":[],"tensor":[],"func":[]}},"data_format":{"s":[78,72,87,67]},"use_cudnn_on_gpu":{"b":true},"padding":{"s":[86,65,76,73,68]},"dilations":{"list":{"s":[],"i":["1","1","1","1"],"f":[],"b":[],"type":[],"shape":[],"tensor":[],"func":[]}},"T":{"type":1}},"name":"generator_hosoda/conv09_1/Conv2D","op":"Conv2D"},{"input":["generator_hosoda/conv09_1/Conv2D","generator_hosoda/conv09_1/bias"],"attr":{"T":{"type":1},"data_format":{"s":[78,72,87,67]}},"name":"generator_hosoda/conv09_1/BiasAdd","op":"BiasAdd"},{"input":["generator_hosoda/conv09_1/BiasAdd","generator_hosoda/in11_1/moments/mean/reduction_indices"],"attr":{"Tidx":{"type":3},"keep_dims":{"b":true},"T":{"type":1}},"name":"generator_hosoda/in09_1/moments/mean","op":"Mean"},{"input":["generator_hosoda/conv09_1/BiasAdd","generator_hosoda/in09_1/moments/mean"],"attr":{"T":{"type":1}},"name":"generator_hosoda/in09_1/moments/SquaredDifference","op":"SquaredDifference"},{"input":["generator_hosoda/in09_1/moments/SquaredDifference","generator_hosoda/in11_1/moments/mean/reduction_indices"],"attr":{"T":{"type":1},"Tidx":{"type":3},"keep_dims":{"b":true}},"name":"generator_hosoda/in09_1/moments/variance","op":"Mean"},{"input":["generator_hosoda/in09_1/moments/variance","generator_hosoda/in11_1/instancenorm/add/y"],"attr":{"T":{"type":1}},"name":"generator_hosoda/in09_1/instancenorm/add","op":"Add"},{"input":["generator_hosoda/in09_1/instancenorm/add"],"attr":{"T":{"type":1}},"name":"generator_hosoda/in09_1/instancenorm/Rsqrt","op":"Rsqrt"},{"input":["generator_hosoda/in09_1/instancenorm/Rsqrt","generator_hosoda/in09_1/gamma"],"attr":{"T":{"type":1}},"name":"generator_hosoda/in09_1/instancenorm/mul","op":"Mul"},{"input":["generator_hosoda/conv09_1/BiasAdd","generator_hosoda/in09_1/instancenorm/mul"],"attr":{"T":{"type":1}},"name":"generator_hosoda/in09_1/instancenorm/mul_1","op":"Mul"},{"input":["generator_hosoda/in09_1/moments/mean","generator_hosoda/in09_1/instancenorm/mul"],"attr":{"T":{"type":1}},"name":"generator_hosoda/in09_1/instancenorm/mul_2","op":"Mul"},{"input":["generator_hosoda/in09_1/beta","generator_hosoda/in09_1/instancenorm/mul_2"],"attr":{"T":{"type":1}},"name":"generator_hosoda/in09_1/instancenorm/sub","op":"Sub"},{"input":["generator_hosoda/in09_1/instancenorm/mul_1","generator_hosoda/in09_1/instancenorm/sub"],"attr":{"T":{"type":1}},"name":"generator_hosoda/in09_1/instancenorm/add_1","op":"Add"},{"input":["generator_hosoda/in09_1/instancenorm/add_1"],"attr":{"T":{"type":1}},"name":"generator_hosoda/Relu_8","op":"Relu"},{"input":["generator_hosoda/Relu_8","generator_hosoda/Pad_15/paddings"],"attr":{"Tpaddings":{"type":3},"T":{"type":1}},"name":"generator_hosoda/Pad_12","op":"Pad"},{"input":["generator_hosoda/Pad_12","generator_hosoda/conv09_2/kernel"],"attr":{"dilations":{"list":{"s":[],"i":["1","1","1","1"],"f":[],"b":[],"type":[],"shape":[],"tensor":[],"func":[]}},"T":{"type":1},"strides":{"list":{"s":[],"i":["1","1","1","1"],"f":[],"b":[],"type":[],"shape":[],"tensor":[],"func":[]}},"data_format":{"s":[78,72,87,67]},"use_cudnn_on_gpu":{"b":true},"padding":{"s":[86,65,76,73,68]}},"name":"generator_hosoda/conv09_2/Conv2D","op":"Conv2D"},{"input":["generator_hosoda/conv09_2/Conv2D","generator_hosoda/conv09_2/bias"],"attr":{"T":{"type":1},"data_format":{"s":[78,72,87,67]}},"name":"generator_hosoda/conv09_2/BiasAdd","op":"BiasAdd"},{"input":["generator_hosoda/conv09_2/BiasAdd","generator_hosoda/in11_1/moments/mean/reduction_indices"],"attr":{"Tidx":{"type":3},"keep_dims":{"b":true},"T":{"type":1}},"name":"generator_hosoda/in09_2/moments/mean","op":"Mean"},{"input":["generator_hosoda/conv09_2/BiasAdd","generator_hosoda/in09_2/moments/mean"],"attr":{"T":{"type":1}},"name":"generator_hosoda/in09_2/moments/SquaredDifference","op":"SquaredDifference"},{"input":["generator_hosoda/in09_2/moments/SquaredDifference","generator_hosoda/in11_1/moments/mean/reduction_indices"],"attr":{"Tidx":{"type":3},"keep_dims":{"b":true},"T":{"type":1}},"name":"generator_hosoda/in09_2/moments/variance","op":"Mean"},{"input":["generator_hosoda/in09_2/moments/variance","generator_hosoda/in11_1/instancenorm/add/y"],"attr":{"T":{"type":1}},"name":"generator_hosoda/in09_2/instancenorm/add","op":"Add"},{"input":["generator_hosoda/in09_2/instancenorm/add"],"attr":{"T":{"type":1}},"name":"generator_hosoda/in09_2/instancenorm/Rsqrt","op":"Rsqrt"},{"input":["generator_hosoda/in09_2/instancenorm/Rsqrt","generator_hosoda/in09_2/gamma"],"attr":{"T":{"type":1}},"name":"generator_hosoda/in09_2/instancenorm/mul","op":"Mul"},{"input":["generator_hosoda/conv09_2/BiasAdd","generator_hosoda/in09_2/instancenorm/mul"],"attr":{"T":{"type":1}},"name":"generator_hosoda/in09_2/instancenorm/mul_1","op":"Mul"},{"input":["generator_hosoda/in09_2/moments/mean","generator_hosoda/in09_2/instancenorm/mul"],"attr":{"T":{"type":1}},"name":"generator_hosoda/in09_2/instancenorm/mul_2","op":"Mul"},{"input":["generator_hosoda/in09_2/beta","generator_hosoda/in09_2/instancenorm/mul_2"],"attr":{"T":{"type":1}},"name":"generator_hosoda/in09_2/instancenorm/sub","op":"Sub"},{"input":["generator_hosoda/in09_2/instancenorm/mul_1","generator_hosoda/in09_2/instancenorm/sub"],"attr":{"T":{"type":1}},"name":"generator_hosoda/in09_2/instancenorm/add_1","op":"Add"},{"input":["generator_hosoda/in09_2/instancenorm/add_1","generator_hosoda/add_4"],"attr":{"T":{"type":1}},"name":"generator_hosoda/add_5","op":"Add"},{"input":["generator_hosoda/add_5","generator_hosoda/Pad_15/paddings"],"attr":{"T":{"type":1},"Tpaddings":{"type":3}},"name":"generator_hosoda/Pad_13","op":"Pad"},{"input":["generator_hosoda/Pad_13","generator_hosoda/conv10_1/kernel"],"attr":{"padding":{"s":[86,65,76,73,68]},"dilations":{"list":{"s":[],"i":["1","1","1","1"],"f":[],"b":[],"type":[],"shape":[],"tensor":[],"func":[]}},"T":{"type":1},"strides":{"list":{"s":[],"i":["1","1","1","1"],"f":[],"b":[],"type":[],"shape":[],"tensor":[],"func":[]}},"data_format":{"s":[78,72,87,67]},"use_cudnn_on_gpu":{"b":true}},"name":"generator_hosoda/conv10_1/Conv2D","op":"Conv2D"},{"input":["generator_hosoda/conv10_1/Conv2D","generator_hosoda/conv10_1/bias"],"attr":{"T":{"type":1},"data_format":{"s":[78,72,87,67]}},"name":"generator_hosoda/conv10_1/BiasAdd","op":"BiasAdd"},{"input":["generator_hosoda/conv10_1/BiasAdd","generator_hosoda/in11_1/moments/mean/reduction_indices"],"attr":{"T":{"type":1},"Tidx":{"type":3},"keep_dims":{"b":true}},"name":"generator_hosoda/in10_1/moments/mean","op":"Mean"},{"input":["generator_hosoda/conv10_1/BiasAdd","generator_hosoda/in10_1/moments/mean"],"attr":{"T":{"type":1}},"name":"generator_hosoda/in10_1/moments/SquaredDifference","op":"SquaredDifference"},{"input":["generator_hosoda/in10_1/moments/SquaredDifference","generator_hosoda/in11_1/moments/mean/reduction_indices"],"attr":{"T":{"type":1},"Tidx":{"type":3},"keep_dims":{"b":true}},"name":"generator_hosoda/in10_1/moments/variance","op":"Mean"},{"input":["generator_hosoda/in10_1/moments/variance","generator_hosoda/in11_1/instancenorm/add/y"],"attr":{"T":{"type":1}},"name":"generator_hosoda/in10_1/instancenorm/add","op":"Add"},{"input":["generator_hosoda/in10_1/instancenorm/add"],"attr":{"T":{"type":1}},"name":"generator_hosoda/in10_1/instancenorm/Rsqrt","op":"Rsqrt"},{"input":["generator_hosoda/in10_1/instancenorm/Rsqrt","generator_hosoda/in10_1/gamma"],"attr":{"T":{"type":1}},"name":"generator_hosoda/in10_1/instancenorm/mul","op":"Mul"},{"input":["generator_hosoda/conv10_1/BiasAdd","generator_hosoda/in10_1/instancenorm/mul"],"attr":{"T":{"type":1}},"name":"generator_hosoda/in10_1/instancenorm/mul_1","op":"Mul"},{"input":["generator_hosoda/in10_1/moments/mean","generator_hosoda/in10_1/instancenorm/mul"],"attr":{"T":{"type":1}},"name":"generator_hosoda/in10_1/instancenorm/mul_2","op":"Mul"},{"input":["generator_hosoda/in10_1/beta","generator_hosoda/in10_1/instancenorm/mul_2"],"attr":{"T":{"type":1}},"name":"generator_hosoda/in10_1/instancenorm/sub","op":"Sub"},{"input":["generator_hosoda/in10_1/instancenorm/mul_1","generator_hosoda/in10_1/instancenorm/sub"],"attr":{"T":{"type":1}},"name":"generator_hosoda/in10_1/instancenorm/add_1","op":"Add"},{"input":["generator_hosoda/in10_1/instancenorm/add_1"],"attr":{"T":{"type":1}},"name":"generator_hosoda/Relu_9","op":"Relu"},{"input":["generator_hosoda/Relu_9","generator_hosoda/Pad_15/paddings"],"attr":{"T":{"type":1},"Tpaddings":{"type":3}},"name":"generator_hosoda/Pad_14","op":"Pad"},{"input":["generator_hosoda/Pad_14","generator_hosoda/conv10_2/kernel"],"attr":{"strides":{"list":{"s":[],"i":["1","1","1","1"],"f":[],"b":[],"type":[],"shape":[],"tensor":[],"func":[]}},"data_format":{"s":[78,72,87,67]},"use_cudnn_on_gpu":{"b":true},"padding":{"s":[86,65,76,73,68]},"dilations":{"list":{"s":[],"i":["1","1","1","1"],"f":[],"b":[],"type":[],"shape":[],"tensor":[],"func":[]}},"T":{"type":1}},"name":"generator_hosoda/conv10_2/Conv2D","op":"Conv2D"},{"input":["generator_hosoda/conv10_2/Conv2D","generator_hosoda/conv10_2/bias"],"attr":{"T":{"type":1},"data_format":{"s":[78,72,87,67]}},"name":"generator_hosoda/conv10_2/BiasAdd","op":"BiasAdd"},{"input":["generator_hosoda/conv10_2/BiasAdd","generator_hosoda/in11_1/moments/mean/reduction_indices"],"attr":{"Tidx":{"type":3},"keep_dims":{"b":true},"T":{"type":1}},"name":"generator_hosoda/in10_2/moments/mean","op":"Mean"},{"input":["generator_hosoda/conv10_2/BiasAdd","generator_hosoda/in10_2/moments/mean"],"attr":{"T":{"type":1}},"name":"generator_hosoda/in10_2/moments/SquaredDifference","op":"SquaredDifference"},{"input":["generator_hosoda/in10_2/moments/SquaredDifference","generator_hosoda/in11_1/moments/mean/reduction_indices"],"attr":{"T":{"type":1},"Tidx":{"type":3},"keep_dims":{"b":true}},"name":"generator_hosoda/in10_2/moments/variance","op":"Mean"},{"input":["generator_hosoda/in10_2/moments/variance","generator_hosoda/in11_1/instancenorm/add/y"],"attr":{"T":{"type":1}},"name":"generator_hosoda/in10_2/instancenorm/add","op":"Add"},{"input":["generator_hosoda/in10_2/instancenorm/add"],"attr":{"T":{"type":1}},"name":"generator_hosoda/in10_2/instancenorm/Rsqrt","op":"Rsqrt"},{"input":["generator_hosoda/in10_2/instancenorm/Rsqrt","generator_hosoda/in10_2/gamma"],"attr":{"T":{"type":1}},"name":"generator_hosoda/in10_2/instancenorm/mul","op":"Mul"},{"input":["generator_hosoda/conv10_2/BiasAdd","generator_hosoda/in10_2/instancenorm/mul"],"attr":{"T":{"type":1}},"name":"generator_hosoda/in10_2/instancenorm/mul_1","op":"Mul"},{"input":["generator_hosoda/in10_2/moments/mean","generator_hosoda/in10_2/instancenorm/mul"],"attr":{"T":{"type":1}},"name":"generator_hosoda/in10_2/instancenorm/mul_2","op":"Mul"},{"input":["generator_hosoda/in10_2/beta","generator_hosoda/in10_2/instancenorm/mul_2"],"attr":{"T":{"type":1}},"name":"generator_hosoda/in10_2/instancenorm/sub","op":"Sub"},{"input":["generator_hosoda/in10_2/instancenorm/mul_1","generator_hosoda/in10_2/instancenorm/sub"],"attr":{"T":{"type":1}},"name":"generator_hosoda/in10_2/instancenorm/add_1","op":"Add"},{"input":["generator_hosoda/in10_2/instancenorm/add_1","generator_hosoda/add_5"],"attr":{"T":{"type":1}},"name":"generator_hosoda/add_6","op":"Add"},{"input":["generator_hosoda/add_6","generator_hosoda/Pad_15/paddings"],"attr":{"T":{"type":1},"Tpaddings":{"type":3}},"name":"generator_hosoda/Pad_15","op":"Pad"},{"input":["generator_hosoda/Pad_15","generator_hosoda/conv11_1/kernel"],"attr":{"T":{"type":1},"strides":{"list":{"s":[],"i":["1","1","1","1"],"f":[],"b":[],"type":[],"shape":[],"tensor":[],"func":[]}},"data_format":{"s":[78,72,87,67]},"use_cudnn_on_gpu":{"b":true},"padding":{"s":[86,65,76,73,68]},"dilations":{"list":{"s":[],"i":["1","1","1","1"],"f":[],"b":[],"type":[],"shape":[],"tensor":[],"func":[]}}},"name":"generator_hosoda/conv11_1/Conv2D","op":"Conv2D"},{"input":["generator_hosoda/conv11_1/Conv2D","generator_hosoda/conv11_1/bias"],"attr":{"T":{"type":1},"data_format":{"s":[78,72,87,67]}},"name":"generator_hosoda/conv11_1/BiasAdd","op":"BiasAdd"},{"input":["generator_hosoda/conv11_1/BiasAdd","generator_hosoda/in11_1/moments/mean/reduction_indices"],"attr":{"Tidx":{"type":3},"keep_dims":{"b":true},"T":{"type":1}},"name":"generator_hosoda/in11_1/moments/mean","op":"Mean"},{"input":["generator_hosoda/conv11_1/BiasAdd","generator_hosoda/in11_1/moments/mean"],"attr":{"T":{"type":1}},"name":"generator_hosoda/in11_1/moments/SquaredDifference","op":"SquaredDifference"},{"input":["generator_hosoda/in11_1/moments/SquaredDifference","generator_hosoda/in11_1/moments/mean/reduction_indices"],"attr":{"T":{"type":1},"Tidx":{"type":3},"keep_dims":{"b":true}},"name":"generator_hosoda/in11_1/moments/variance","op":"Mean"},{"input":["generator_hosoda/in11_1/moments/variance","generator_hosoda/in11_1/instancenorm/add/y"],"attr":{"T":{"type":1}},"name":"generator_hosoda/in11_1/instancenorm/add","op":"Add"},{"input":["generator_hosoda/in11_1/instancenorm/add"],"attr":{"T":{"type":1}},"name":"generator_hosoda/in11_1/instancenorm/Rsqrt","op":"Rsqrt"},{"input":["generator_hosoda/in11_1/instancenorm/Rsqrt","generator_hosoda/in11_1/gamma"],"attr":{"T":{"type":1}},"name":"generator_hosoda/in11_1/instancenorm/mul","op":"Mul"},{"input":["generator_hosoda/conv11_1/BiasAdd","generator_hosoda/in11_1/instancenorm/mul"],"attr":{"T":{"type":1}},"name":"generator_hosoda/in11_1/instancenorm/mul_1","op":"Mul"},{"input":["generator_hosoda/in11_1/moments/mean","generator_hosoda/in11_1/instancenorm/mul"],"attr":{"T":{"type":1}},"name":"generator_hosoda/in11_1/instancenorm/mul_2","op":"Mul"},{"input":["generator_hosoda/in11_1/beta","generator_hosoda/in11_1/instancenorm/mul_2"],"attr":{"T":{"type":1}},"name":"generator_hosoda/in11_1/instancenorm/sub","op":"Sub"},{"input":["generator_hosoda/in11_1/instancenorm/mul_1","generator_hosoda/in11_1/instancenorm/sub"],"attr":{"T":{"type":1}},"name":"generator_hosoda/in11_1/instancenorm/add_1","op":"Add"},{"input":["generator_hosoda/in11_1/instancenorm/add_1"],"attr":{"T":{"type":1}},"name":"generator_hosoda/Relu_10","op":"Relu"},{"input":["generator_hosoda/Relu_10","generator_hosoda/Pad_15/paddings"],"attr":{"T":{"type":1},"Tpaddings":{"type":3}},"name":"generator_hosoda/Pad_16","op":"Pad"},{"input":["generator_hosoda/Pad_16","generator_hosoda/conv11_2/kernel"],"attr":{"strides":{"list":{"s":[],"i":["1","1","1","1"],"f":[],"b":[],"type":[],"shape":[],"tensor":[],"func":[]}},"data_format":{"s":[78,72,87,67]},"use_cudnn_on_gpu":{"b":true},"padding":{"s":[86,65,76,73,68]},"dilations":{"list":{"s":[],"i":["1","1","1","1"],"f":[],"b":[],"type":[],"shape":[],"tensor":[],"func":[]}},"T":{"type":1}},"name":"generator_hosoda/conv11_2/Conv2D","op":"Conv2D"},{"input":["generator_hosoda/conv11_2/Conv2D","generator_hosoda/conv11_2/bias"],"attr":{"T":{"type":1},"data_format":{"s":[78,72,87,67]}},"name":"generator_hosoda/conv11_2/BiasAdd","op":"BiasAdd"},{"input":["generator_hosoda/conv11_2/BiasAdd","generator_hosoda/in11_1/moments/mean/reduction_indices"],"attr":{"T":{"type":1},"Tidx":{"type":3},"keep_dims":{"b":true}},"name":"generator_hosoda/in11_2/moments/mean","op":"Mean"},{"input":["generator_hosoda/conv11_2/BiasAdd","generator_hosoda/in11_2/moments/mean"],"attr":{"T":{"type":1}},"name":"generator_hosoda/in11_2/moments/SquaredDifference","op":"SquaredDifference"},{"input":["generator_hosoda/in11_2/moments/SquaredDifference","generator_hosoda/in11_1/moments/mean/reduction_indices"],"attr":{"T":{"type":1},"Tidx":{"type":3},"keep_dims":{"b":true}},"name":"generator_hosoda/in11_2/moments/variance","op":"Mean"},{"input":["generator_hosoda/in11_2/moments/variance","generator_hosoda/in11_1/instancenorm/add/y"],"attr":{"T":{"type":1}},"name":"generator_hosoda/in11_2/instancenorm/add","op":"Add"},{"input":["generator_hosoda/in11_2/instancenorm/add"],"attr":{"T":{"type":1}},"name":"generator_hosoda/in11_2/instancenorm/Rsqrt","op":"Rsqrt"},{"input":["generator_hosoda/in11_2/instancenorm/Rsqrt","generator_hosoda/in11_2/gamma"],"attr":{"T":{"type":1}},"name":"generator_hosoda/in11_2/instancenorm/mul","op":"Mul"},{"input":["generator_hosoda/conv11_2/BiasAdd","generator_hosoda/in11_2/instancenorm/mul"],"attr":{"T":{"type":1}},"name":"generator_hosoda/in11_2/instancenorm/mul_1","op":"Mul"},{"input":["generator_hosoda/in11_2/moments/mean","generator_hosoda/in11_2/instancenorm/mul"],"attr":{"T":{"type":1}},"name":"generator_hosoda/in11_2/instancenorm/mul_2","op":"Mul"},{"input":["generator_hosoda/in11_2/beta","generator_hosoda/in11_2/instancenorm/mul_2"],"attr":{"T":{"type":1}},"name":"generator_hosoda/in11_2/instancenorm/sub","op":"Sub"},{"input":["generator_hosoda/in11_2/instancenorm/mul_1","generator_hosoda/in11_2/instancenorm/sub"],"attr":{"T":{"type":1}},"name":"generator_hosoda/in11_2/instancenorm/add_1","op":"Add"},{"input":["generator_hosoda/in11_2/instancenorm/add_1","generator_hosoda/add_6"],"attr":{"T":{"type":1}},"name":"generator_hosoda/add_7","op":"Add"},{"input":["generator_hosoda/add_7"],"attr":{"T":{"type":1},"out_type":{"type":3}},"name":"generator_hosoda/deconv01_1/Shape","op":"Shape"},{"input":["generator_hosoda/deconv01_1/Shape","generator_hosoda/deconv02_1/strided_slice/stack","generator_hosoda/deconv02_1/strided_slice/stack_1","generator_hosoda/deconv02_1/strided_slice/stack_1"],"attr":{"Index":{"type":3},"T":{"type":3},"shrink_axis_mask":{"i":"1"},"begin_mask":{"i":"0"},"ellipsis_mask":{"i":"0"},"new_axis_mask":{"i":"0"},"end_mask":{"i":"0"}},"name":"generator_hosoda/deconv01_1/strided_slice","op":"StridedSlice"},{"input":["generator_hosoda/deconv01_1/Shape","generator_hosoda/deconv02_1/strided_slice/stack_1","generator_hosoda/deconv02_1/strided_slice_1/stack_1","generator_hosoda/deconv02_1/strided_slice/stack_1"],"attr":{"Index":{"type":3},"T":{"type":3},"shrink_axis_mask":{"i":"1"},"ellipsis_mask":{"i":"0"},"begin_mask":{"i":"0"},"new_axis_mask":{"i":"0"},"end_mask":{"i":"0"}},"name":"generator_hosoda/deconv01_1/strided_slice_1","op":"StridedSlice"},{"input":["generator_hosoda/deconv01_1/Shape","generator_hosoda/deconv02_1/strided_slice_1/stack_1","generator_hosoda/deconv02_1/strided_slice_2/stack_1","generator_hosoda/deconv02_1/strided_slice/stack_1"],"attr":{"T":{"type":3},"Index":{"type":3},"shrink_axis_mask":{"i":"1"},"begin_mask":{"i":"0"},"ellipsis_mask":{"i":"0"},"new_axis_mask":{"i":"0"},"end_mask":{"i":"0"}},"name":"generator_hosoda/deconv01_1/strided_slice_2","op":"StridedSlice"},{"input":["generator_hosoda/deconv01_1/strided_slice_1","generator_hosoda/deconv02_1/mul/y"],"attr":{"T":{"type":3}},"name":"generator_hosoda/deconv01_1/mul","op":"Mul"},{"input":["generator_hosoda/deconv01_1/strided_slice_2","generator_hosoda/deconv02_1/mul/y"],"attr":{"T":{"type":3}},"name":"generator_hosoda/deconv01_1/mul_1","op":"Mul"},{"input":["generator_hosoda/deconv01_1/mul","generator_hosoda/deconv02_1/add/y"],"attr":{"T":{"type":3}},"name":"generator_hosoda/deconv01_1/add","op":"Add"},{"input":["generator_hosoda/deconv01_1/mul_1","generator_hosoda/deconv02_1/add/y"],"attr":{"T":{"type":3}},"name":"generator_hosoda/deconv01_1/add_1","op":"Add"},{"input":["generator_hosoda/deconv01_1/strided_slice","generator_hosoda/deconv01_1/add","generator_hosoda/deconv01_1/add_1","generator_hosoda/deconv01_1/conv2d_transpose/output_shape/3"],"attr":{"T":{"type":3},"axis":{"i":"0"},"N":{"i":"4"}},"name":"generator_hosoda/deconv01_1/conv2d_transpose/output_shape","op":"Pack"},{"input":["generator_hosoda/deconv01_1/conv2d_transpose/output_shape","generator_hosoda/deconv01_1/kernel","generator_hosoda/add_7"],"attr":{"padding":{"s":[86,65,76,73,68]},"dilations":{"list":{"s":[],"i":["1","1","1","1"],"f":[],"b":[],"type":[],"shape":[],"tensor":[],"func":[]}},"T":{"type":1},"data_format":{"s":[78,72,87,67]},"strides":{"list":{"s":[],"i":["1","2","2","1"],"f":[],"b":[],"type":[],"shape":[],"tensor":[],"func":[]}},"use_cudnn_on_gpu":{"b":true}},"name":"generator_hosoda/deconv01_1/conv2d_transpose","op":"Conv2DBackpropInput"},{"input":["generator_hosoda/deconv01_1/conv2d_transpose","generator_hosoda/deconv01_1/strided_slice_3/stack","generator_hosoda/deconv01_1/strided_slice_3/stack_1","generator_hosoda/deconv01_1/strided_slice_3/stack_2"],"attr":{"Index":{"type":3},"T":{"type":1},"shrink_axis_mask":{"i":"0"},"ellipsis_mask":{"i":"0"},"begin_mask":{"i":"1"},"new_axis_mask":{"i":"0"},"end_mask":{"i":"7"}},"name":"generator_hosoda/deconv01_1/strided_slice_3","op":"StridedSlice"},{"input":["generator_hosoda/deconv01_1/strided_slice_3","generator_hosoda/deconv01_1/bias"],"attr":{"data_format":{"s":[78,72,87,67]},"T":{"type":1}},"name":"generator_hosoda/deconv01_1/BiasAdd","op":"BiasAdd"},{"input":["generator_hosoda/deconv01_1/BiasAdd","generator_hosoda/Pad_15/paddings"],"attr":{"T":{"type":1},"Tpaddings":{"type":3}},"name":"generator_hosoda/deconv01_2/Pad","op":"Pad"},{"input":["generator_hosoda/deconv01_2/Pad","generator_hosoda/deconv01_2/kernel"],"attr":{"strides":{"list":{"s":[],"i":["1","1","1","1"],"f":[],"b":[],"type":[],"shape":[],"tensor":[],"func":[]}},"data_format":{"s":[78,72,87,67]},"use_cudnn_on_gpu":{"b":true},"padding":{"s":[86,65,76,73,68]},"dilations":{"list":{"s":[],"i":["1","1","1","1"],"f":[],"b":[],"type":[],"shape":[],"tensor":[],"func":[]}},"T":{"type":1}},"name":"generator_hosoda/deconv01_2/Conv2D","op":"Conv2D"},{"input":["generator_hosoda/deconv01_2/Conv2D","generator_hosoda/deconv01_2/bias"],"attr":{"T":{"type":1},"data_format":{"s":[78,72,87,67]}},"name":"generator_hosoda/deconv01_2/BiasAdd","op":"BiasAdd"},{"input":["generator_hosoda/deconv01_2/BiasAdd","generator_hosoda/in11_1/moments/mean/reduction_indices"],"attr":{"Tidx":{"type":3},"keep_dims":{"b":true},"T":{"type":1}},"name":"generator_hosoda/in12_1/moments/mean","op":"Mean"},{"input":["generator_hosoda/deconv01_2/BiasAdd","generator_hosoda/in12_1/moments/mean"],"attr":{"T":{"type":1}},"name":"generator_hosoda/in12_1/moments/SquaredDifference","op":"SquaredDifference"},{"input":["generator_hosoda/in12_1/moments/SquaredDifference","generator_hosoda/in11_1/moments/mean/reduction_indices"],"attr":{"Tidx":{"type":3},"keep_dims":{"b":true},"T":{"type":1}},"name":"generator_hosoda/in12_1/moments/variance","op":"Mean"},{"input":["generator_hosoda/in12_1/moments/variance","generator_hosoda/in11_1/instancenorm/add/y"],"attr":{"T":{"type":1}},"name":"generator_hosoda/in12_1/instancenorm/add","op":"Add"},{"input":["generator_hosoda/in12_1/instancenorm/add"],"attr":{"T":{"type":1}},"name":"generator_hosoda/in12_1/instancenorm/Rsqrt","op":"Rsqrt"},{"input":["generator_hosoda/in12_1/instancenorm/Rsqrt","generator_hosoda/in12_1/gamma"],"attr":{"T":{"type":1}},"name":"generator_hosoda/in12_1/instancenorm/mul","op":"Mul"},{"input":["generator_hosoda/deconv01_2/BiasAdd","generator_hosoda/in12_1/instancenorm/mul"],"attr":{"T":{"type":1}},"name":"generator_hosoda/in12_1/instancenorm/mul_1","op":"Mul"},{"input":["generator_hosoda/in12_1/moments/mean","generator_hosoda/in12_1/instancenorm/mul"],"attr":{"T":{"type":1}},"name":"generator_hosoda/in12_1/instancenorm/mul_2","op":"Mul"},{"input":["generator_hosoda/in12_1/beta","generator_hosoda/in12_1/instancenorm/mul_2"],"attr":{"T":{"type":1}},"name":"generator_hosoda/in12_1/instancenorm/sub","op":"Sub"},{"input":["generator_hosoda/in12_1/instancenorm/mul_1","generator_hosoda/in12_1/instancenorm/sub"],"attr":{"T":{"type":1}},"name":"generator_hosoda/in12_1/instancenorm/add_1","op":"Add"},{"input":["generator_hosoda/in12_1/instancenorm/add_1"],"attr":{"T":{"type":1}},"name":"generator_hosoda/Relu_11","op":"Relu"},{"input":["generator_hosoda/Relu_11"],"attr":{"T":{"type":1},"out_type":{"type":3}},"name":"generator_hosoda/deconv02_1/Shape","op":"Shape"},{"input":["generator_hosoda/deconv02_1/Shape","generator_hosoda/deconv02_1/strided_slice/stack","generator_hosoda/deconv02_1/strided_slice/stack_1","generator_hosoda/deconv02_1/strided_slice/stack_1"],"attr":{"T":{"type":3},"Index":{"type":3},"shrink_axis_mask":{"i":"1"},"begin_mask":{"i":"0"},"ellipsis_mask":{"i":"0"},"new_axis_mask":{"i":"0"},"end_mask":{"i":"0"}},"name":"generator_hosoda/deconv02_1/strided_slice","op":"StridedSlice"},{"input":["generator_hosoda/deconv02_1/Shape","generator_hosoda/deconv02_1/strided_slice/stack_1","generator_hosoda/deconv02_1/strided_slice_1/stack_1","generator_hosoda/deconv02_1/strided_slice/stack_1"],"attr":{"shrink_axis_mask":{"i":"1"},"begin_mask":{"i":"0"},"ellipsis_mask":{"i":"0"},"new_axis_mask":{"i":"0"},"end_mask":{"i":"0"},"Index":{"type":3},"T":{"type":3}},"name":"generator_hosoda/deconv02_1/strided_slice_1","op":"StridedSlice"},{"input":["generator_hosoda/deconv02_1/Shape","generator_hosoda/deconv02_1/strided_slice_1/stack_1","generator_hosoda/deconv02_1/strided_slice_2/stack_1","generator_hosoda/deconv02_1/strided_slice/stack_1"],"attr":{"shrink_axis_mask":{"i":"1"},"begin_mask":{"i":"0"},"ellipsis_mask":{"i":"0"},"new_axis_mask":{"i":"0"},"end_mask":{"i":"0"},"T":{"type":3},"Index":{"type":3}},"name":"generator_hosoda/deconv02_1/strided_slice_2","op":"StridedSlice"},{"input":["generator_hosoda/deconv02_1/strided_slice_1","generator_hosoda/deconv02_1/mul/y"],"attr":{"T":{"type":3}},"name":"generator_hosoda/deconv02_1/mul","op":"Mul"},{"input":["generator_hosoda/deconv02_1/strided_slice_2","generator_hosoda/deconv02_1/mul/y"],"attr":{"T":{"type":3}},"name":"generator_hosoda/deconv02_1/mul_1","op":"Mul"},{"input":["generator_hosoda/deconv02_1/mul","generator_hosoda/deconv02_1/add/y"],"attr":{"T":{"type":3}},"name":"generator_hosoda/deconv02_1/add","op":"Add"},{"input":["generator_hosoda/deconv02_1/mul_1","generator_hosoda/deconv02_1/add/y"],"attr":{"T":{"type":3}},"name":"generator_hosoda/deconv02_1/add_1","op":"Add"},{"input":["generator_hosoda/deconv02_1/strided_slice","generator_hosoda/deconv02_1/add","generator_hosoda/deconv02_1/add_1","generator_hosoda/deconv02_1/conv2d_transpose/output_shape/3"],"attr":{"T":{"type":3},"axis":{"i":"0"},"N":{"i":"4"}},"name":"generator_hosoda/deconv02_1/conv2d_transpose/output_shape","op":"Pack"},{"input":["generator_hosoda/deconv02_1/conv2d_transpose/output_shape","generator_hosoda/deconv02_1/kernel","generator_hosoda/Relu_11"],"attr":{"dilations":{"list":{"s":[],"i":["1","1","1","1"],"f":[],"b":[],"type":[],"shape":[],"tensor":[],"func":[]}},"T":{"type":1},"strides":{"list":{"s":[],"i":["1","2","2","1"],"f":[],"b":[],"type":[],"shape":[],"tensor":[],"func":[]}},"data_format":{"s":[78,72,87,67]},"use_cudnn_on_gpu":{"b":true},"padding":{"s":[86,65,76,73,68]}},"name":"generator_hosoda/deconv02_1/conv2d_transpose","op":"Conv2DBackpropInput"},{"input":["generator_hosoda/deconv02_1/conv2d_transpose","generator_hosoda/deconv01_1/strided_slice_3/stack","generator_hosoda/deconv01_1/strided_slice_3/stack_1","generator_hosoda/deconv01_1/strided_slice_3/stack_2"],"attr":{"T":{"type":1},"Index":{"type":3},"shrink_axis_mask":{"i":"0"},"begin_mask":{"i":"1"},"ellipsis_mask":{"i":"0"},"new_axis_mask":{"i":"0"},"end_mask":{"i":"7"}},"name":"generator_hosoda/deconv02_1/strided_slice_3","op":"StridedSlice"},{"input":["generator_hosoda/deconv02_1/strided_slice_3","generator_hosoda/deconv02_1/bias"],"attr":{"T":{"type":1},"data_format":{"s":[78,72,87,67]}},"name":"generator_hosoda/deconv02_1/BiasAdd","op":"BiasAdd"},{"input":["generator_hosoda/deconv02_1/BiasAdd","generator_hosoda/Pad_15/paddings"],"attr":{"T":{"type":1},"Tpaddings":{"type":3}},"name":"generator_hosoda/deconv02_2/Pad","op":"Pad"},{"input":["generator_hosoda/deconv02_2/Pad","generator_hosoda/deconv02_2/kernel"],"attr":{"padding":{"s":[86,65,76,73,68]},"dilations":{"list":{"s":[],"i":["1","1","1","1"],"f":[],"b":[],"type":[],"shape":[],"tensor":[],"func":[]}},"T":{"type":1},"data_format":{"s":[78,72,87,67]},"strides":{"list":{"s":[],"i":["1","1","1","1"],"f":[],"b":[],"type":[],"shape":[],"tensor":[],"func":[]}},"use_cudnn_on_gpu":{"b":true}},"name":"generator_hosoda/deconv02_2/Conv2D","op":"Conv2D"},{"input":["generator_hosoda/deconv02_2/Conv2D","generator_hosoda/deconv02_2/bias"],"attr":{"T":{"type":1},"data_format":{"s":[78,72,87,67]}},"name":"generator_hosoda/deconv02_2/BiasAdd","op":"BiasAdd"},{"input":["generator_hosoda/deconv02_2/BiasAdd","generator_hosoda/in11_1/moments/mean/reduction_indices"],"attr":{"T":{"type":1},"Tidx":{"type":3},"keep_dims":{"b":true}},"name":"generator_hosoda/in13_1/moments/mean","op":"Mean"},{"input":["generator_hosoda/deconv02_2/BiasAdd","generator_hosoda/in13_1/moments/mean"],"attr":{"T":{"type":1}},"name":"generator_hosoda/in13_1/moments/SquaredDifference","op":"SquaredDifference"},{"input":["generator_hosoda/in13_1/moments/SquaredDifference","generator_hosoda/in11_1/moments/mean/reduction_indices"],"attr":{"Tidx":{"type":3},"keep_dims":{"b":true},"T":{"type":1}},"name":"generator_hosoda/in13_1/moments/variance","op":"Mean"},{"input":["generator_hosoda/in13_1/moments/variance","generator_hosoda/in11_1/instancenorm/add/y"],"attr":{"T":{"type":1}},"name":"generator_hosoda/in13_1/instancenorm/add","op":"Add"},{"input":["generator_hosoda/in13_1/instancenorm/add"],"attr":{"T":{"type":1}},"name":"generator_hosoda/in13_1/instancenorm/Rsqrt","op":"Rsqrt"},{"input":["generator_hosoda/in13_1/instancenorm/Rsqrt","generator_hosoda/in13_1/gamma"],"attr":{"T":{"type":1}},"name":"generator_hosoda/in13_1/instancenorm/mul","op":"Mul"},{"input":["generator_hosoda/deconv02_2/BiasAdd","generator_hosoda/in13_1/instancenorm/mul"],"attr":{"T":{"type":1}},"name":"generator_hosoda/in13_1/instancenorm/mul_1","op":"Mul"},{"input":["generator_hosoda/in13_1/moments/mean","generator_hosoda/in13_1/instancenorm/mul"],"attr":{"T":{"type":1}},"name":"generator_hosoda/in13_1/instancenorm/mul_2","op":"Mul"},{"input":["generator_hosoda/in13_1/beta","generator_hosoda/in13_1/instancenorm/mul_2"],"attr":{"T":{"type":1}},"name":"generator_hosoda/in13_1/instancenorm/sub","op":"Sub"},{"input":["generator_hosoda/in13_1/instancenorm/mul_1","generator_hosoda/in13_1/instancenorm/sub"],"attr":{"T":{"type":1}},"name":"generator_hosoda/in13_1/instancenorm/add_1","op":"Add"},{"input":["generator_hosoda/in13_1/instancenorm/add_1"],"attr":{"T":{"type":1}},"name":"generator_hosoda/Relu_12","op":"Relu"},{"input":["generator_hosoda/Relu_12","generator_hosoda/Pad/paddings"],"attr":{"T":{"type":1},"Tpaddings":{"type":3}},"name":"generator_hosoda/Pad_17","op":"Pad"},{"input":["generator_hosoda/Pad_17","generator_hosoda/deconv03_1/kernel"],"attr":{"dilations":{"list":{"s":[],"i":["1","1","1","1"],"f":[],"b":[],"type":[],"shape":[],"tensor":[],"func":[]}},"T":{"type":1},"data_format":{"s":[78,72,87,67]},"strides":{"list":{"s":[],"i":["1","1","1","1"],"f":[],"b":[],"type":[],"shape":[],"tensor":[],"func":[]}},"use_cudnn_on_gpu":{"b":true},"padding":{"s":[86,65,76,73,68]}},"name":"generator_hosoda/deconv03_1/Conv2D","op":"Conv2D"},{"input":["generator_hosoda/deconv03_1/Conv2D","generator_hosoda/deconv03_1/bias"],"attr":{"data_format":{"s":[78,72,87,67]},"T":{"type":1}},"name":"generator_hosoda/deconv03_1/BiasAdd","op":"BiasAdd"},{"input":["generator_hosoda/deconv03_1/BiasAdd"],"attr":{"T":{"type":1}},"name":"generator_hosoda/Tanh","op":"Tanh"}],"library":{"function":[],"gradient":[]},"versions":{"badConsumers":[]}},"weightsManifest":[{"paths":["group1-shard1of3","group1-shard2of3","group1-shard3of3"],"weights":[{"name":"generator_hosoda/in13_1/beta","shape":[64],"dtype":"float32","quantization":{"min":-0.27493705637205174,"scale":0.0011041648850283203,"dtype":"uint8"}},{"name":"generator_hosoda/deconv02_1/conv2d_transpose/output_shape/3","shape":[],"dtype":"int32","quantization":{"min":64,"scale":1,"dtype":"uint8"}},{"name":"generator_hosoda/deconv02_1/kernel","shape":[3,3,64,128],"dtype":"float32","quantization":{"min":-0.09454209208488464,"scale":0.0007944713620578541,"dtype":"uint8"}},{"name":"generator_hosoda/in12_1/beta","shape":[128],"dtype":"float32","quantization":{"min":-0.06707365381367067,"scale":0.0005199508047571369,"dtype":"uint8"}},{"name":"generator_hosoda/deconv02_1/strided_slice/stack","shape":[1],"dtype":"int32","quantization":{"min":0,"scale":1,"dtype":"uint8"}},{"name":"generator_hosoda/deconv02_1/strided_slice_1/stack_1","shape":[1],"dtype":"int32","quantization":{"min":2,"scale":1,"dtype":"uint8"}},{"name":"generator_hosoda/deconv02_1/strided_slice_2/stack_1","shape":[1],"dtype":"int32","quantization":{"min":3,"scale":1,"dtype":"uint8"}},{"name":"generator_hosoda/deconv02_1/strided_slice/stack_1","shape":[1],"dtype":"int32","quantization":{"min":1,"scale":1,"dtype":"uint8"}},{"name":"generator_hosoda/deconv02_1/mul/y","shape":[],"dtype":"int32","quantization":{"min":2,"scale":1,"dtype":"uint8"}},{"name":"generator_hosoda/deconv02_1/add/y","shape":[],"dtype":"int32","quantization":{"min":1,"scale":1,"dtype":"uint8"}},{"name":"generator_hosoda/deconv01_1/conv2d_transpose/output_shape/3","shape":[],"dtype":"int32","quantization":{"min":128,"scale":1,"dtype":"uint8"}},{"name":"generator_hosoda/deconv01_1/kernel","shape":[3,3,128,256],"dtype":"float32","quantization":{"min":-0.09057547996441523,"scale":0.0007611384870959263,"dtype":"uint8"}},{"name":"generator_hosoda/in11_2/beta","shape":[256],"dtype":"float32","quantization":{"min":-0.034265120035293056,"scale":0.0003143588994063583,"dtype":"uint8"}},{"name":"generator_hosoda/in11_1/beta","shape":[256],"dtype":"float32","quantization":{"min":-0.08038496773909119,"scale":0.0005186126950909109,"dtype":"uint8"}},{"name":"generator_hosoda/conv11_1/kernel","shape":[3,3,256,256],"dtype":"float32","quantization":{"min":-0.09545148698722615,"scale":0.0007823892376002143,"dtype":"uint8"}},{"name":"generator_hosoda/conv11_1/bias","shape":[256],"dtype":"float32","quantization":{"min":-1.8099184630329723e-9,"scale":1.4251326480574585e-11,"dtype":"uint8"}},{"name":"generator_hosoda/in11_1/gamma","shape":[256],"dtype":"float32","quantization":{"min":0.05512061342597008,"scale":0.0036724112927913667,"dtype":"uint8"}},{"name":"generator_hosoda/conv11_2/kernel","shape":[3,3,256,256],"dtype":"float32","quantization":{"min":-0.09810131507761338,"scale":0.0007911396377226885,"dtype":"uint8"}},{"name":"generator_hosoda/conv11_2/bias","shape":[256],"dtype":"float32","quantization":{"min":-6.688897169482289e-9,"scale":5.71700612776264e-11,"dtype":"uint8"}},{"name":"generator_hosoda/in11_2/gamma","shape":[256],"dtype":"float32","quantization":{"min":0.05062269791960716,"scale":0.0037443165831706105,"dtype":"uint8"}},{"name":"generator_hosoda/in10_2/beta","shape":[256],"dtype":"float32","quantization":{"min":-0.034265110481019115,"scale":0.00031435881175246894,"dtype":"uint8"}},{"name":"generator_hosoda/in10_1/beta","shape":[256],"dtype":"float32","quantization":{"min":-0.08143963965715147,"scale":0.000528828828942542,"dtype":"uint8"}},{"name":"generator_hosoda/conv10_1/kernel","shape":[3,3,256,256],"dtype":"float32","quantization":{"min":-0.09100652147157519,"scale":0.0007521200121617784,"dtype":"uint8"}},{"name":"generator_hosoda/conv10_1/bias","shape":[256],"dtype":"float32","quantization":{"min":-1.7382358123680375e-9,"scale":1.4018030744903528e-11,"dtype":"uint8"}},{"name":"generator_hosoda/in10_1/gamma","shape":[256],"dtype":"float32","quantization":{"min":0.05018162354826927,"scale":0.0036314246847349053,"dtype":"uint8"}},{"name":"generator_hosoda/conv10_2/kernel","shape":[3,3,256,256],"dtype":"float32","quantization":{"min":-0.09922383754861122,"scale":0.0007937907003888897,"dtype":"uint8"}},{"name":"generator_hosoda/conv10_2/bias","shape":[256],"dtype":"float32","quantization":{"min":-7.530628446753933e-9,"scale":6.491921074787873e-11,"dtype":"uint8"}},{"name":"generator_hosoda/in10_2/gamma","shape":[256],"dtype":"float32","quantization":{"min":-0.02804665016193016,"scale":0.004006664308847166,"dtype":"uint8"}},{"name":"generator_hosoda/in09_2/beta","shape":[256],"dtype":"float32","quantization":{"min":-0.034265102519124166,"scale":0.00031435873870756115,"dtype":"uint8"}},{"name":"generator_hosoda/in09_1/beta","shape":[256],"dtype":"float32","quantization":{"min":-0.07198641427299556,"scale":0.0004644284791806165,"dtype":"uint8"}},{"name":"generator_hosoda/conv09_1/kernel","shape":[3,3,256,256],"dtype":"float32","quantization":{"min":-0.09058192471663157,"scale":0.0008016099532445272,"dtype":"uint8"}},{"name":"generator_hosoda/conv09_1/bias","shape":[256],"dtype":"float32","quantization":{"min":-3.470781662073819e-9,"scale":2.2684847464534763e-11,"dtype":"uint8"}},{"name":"generator_hosoda/in09_1/gamma","shape":[256],"dtype":"float32","quantization":{"min":0.06216226518154144,"scale":0.003616794008834689,"dtype":"uint8"}},{"name":"generator_hosoda/conv09_2/kernel","shape":[3,3,256,256],"dtype":"float32","quantization":{"min":-0.0931705587050494,"scale":0.0007764213225420783,"dtype":"uint8"}},{"name":"generator_hosoda/conv09_2/bias","shape":[256],"dtype":"float32","quantization":{"min":-8.756818412875338e-9,"scale":1.018234699171551e-10,"dtype":"uint8"}},{"name":"generator_hosoda/in09_2/gamma","shape":[256],"dtype":"float32","quantization":{"min":0.040255192667245865,"scale":0.003735079703962102,"dtype":"uint8"}},{"name":"generator_hosoda/in08_2/beta","shape":[256],"dtype":"float32","quantization":{"min":-0.03426510729626114,"scale":0.0003143587825345058,"dtype":"uint8"}},{"name":"generator_hosoda/in08_1/beta","shape":[256],"dtype":"float32","quantization":{"min":-0.07818374308008774,"scale":0.0005044112456779854,"dtype":"uint8"}},{"name":"generator_hosoda/conv08_1/kernel","shape":[3,3,256,256],"dtype":"float32","quantization":{"min":-0.10911463101704916,"scale":0.0008023134633606555,"dtype":"uint8"}},{"name":"generator_hosoda/conv08_1/bias","shape":[256],"dtype":"float32","quantization":{"min":-2.0301692797463533e-9,"scale":2.1829777201573693e-11,"dtype":"uint8"}},{"name":"generator_hosoda/in08_1/gamma","shape":[256],"dtype":"float32","quantization":{"min":0.04728129506111145,"scale":0.003720149456285963,"dtype":"uint8"}},{"name":"generator_hosoda/conv08_2/kernel","shape":[3,3,256,256],"dtype":"float32","quantization":{"min":-0.09517322007347556,"scale":0.0007553430164561552,"dtype":"uint8"}},{"name":"generator_hosoda/conv08_2/bias","shape":[256],"dtype":"float32","quantization":{"min":-1.0253730535671544e-8,"scale":7.071538300463134e-11,"dtype":"uint8"}},{"name":"generator_hosoda/in08_2/gamma","shape":[256],"dtype":"float32","quantization":{"min":-0.015904127265892777,"scale":0.003976031816473194,"dtype":"uint8"}},{"name":"generator_hosoda/in07_2/beta","shape":[256],"dtype":"float32","quantization":{"min":-0.034265118442914064,"scale":0.00031435888479737674,"dtype":"uint8"}},{"name":"generator_hosoda/in07_1/beta","shape":[256],"dtype":"float32","quantization":{"min":-0.04657627610014935,"scale":0.0003475841500011145,"dtype":"uint8"}},{"name":"generator_hosoda/conv07_1/kernel","shape":[3,3,256,256],"dtype":"float32","quantization":{"min":-0.09660020011897182,"scale":0.000760631496999778,"dtype":"uint8"}},{"name":"generator_hosoda/conv07_1/bias","shape":[256],"dtype":"float32","quantization":{"min":-3.799038828185085e-9,"scale":3.113966252610725e-11,"dtype":"uint8"}},{"name":"generator_hosoda/in07_1/gamma","shape":[256],"dtype":"float32","quantization":{"min":0.05305203050374985,"scale":0.003680193804058374,"dtype":"uint8"}},{"name":"generator_hosoda/conv07_2/kernel","shape":[3,3,256,256],"dtype":"float32","quantization":{"min":-0.09410283495398129,"scale":0.0007841902912831774,"dtype":"uint8"}},{"name":"generator_hosoda/conv07_2/bias","shape":[256],"dtype":"float32","quantization":{"min":-7.739453640927725e-9,"scale":5.690774735976269e-11,"dtype":"uint8"}},{"name":"generator_hosoda/in07_2/gamma","shape":[256],"dtype":"float32","quantization":{"min":0.02834387868642807,"scale":0.003763604543957056,"dtype":"uint8"}},{"name":"generator_hosoda/in06_2/beta","shape":[256],"dtype":"float32","quantization":{"min":-0.034265120035293056,"scale":0.0003143588994063583,"dtype":"uint8"}},{"name":"generator_hosoda/in06_1/beta","shape":[256],"dtype":"float32","quantization":{"min":-0.050332407390370086,"scale":0.00039946355071722293,"dtype":"uint8"}},{"name":"generator_hosoda/conv06_1/kernel","shape":[3,3,256,256],"dtype":"float32","quantization":{"min":-0.09932029010618433,"scale":0.0008074820333836125,"dtype":"uint8"}},{"name":"generator_hosoda/conv06_1/bias","shape":[256],"dtype":"float32","quantization":{"min":-3.2925468025227056e-9,"scale":2.335139576257238e-11,"dtype":"uint8"}},{"name":"generator_hosoda/in06_1/gamma","shape":[256],"dtype":"float32","quantization":{"min":0.04262121021747589,"scale":0.003684731032334122,"dtype":"uint8"}},{"name":"generator_hosoda/conv06_2/kernel","shape":[3,3,256,256],"dtype":"float32","quantization":{"min":-0.09473706799394944,"scale":0.0007765333442127004,"dtype":"uint8"}},{"name":"generator_hosoda/conv06_2/bias","shape":[256],"dtype":"float32","quantization":{"min":-9.667868962908949e-9,"scale":6.66749583648893e-11,"dtype":"uint8"}},{"name":"generator_hosoda/in06_2/gamma","shape":[256],"dtype":"float32","quantization":{"min":0.02956174872815609,"scale":0.0037493367186364006,"dtype":"uint8"}},{"name":"generator_hosoda/in05_2/beta","shape":[256],"dtype":"float32","quantization":{"min":-0.03426511366577709,"scale":0.00031435884097043206,"dtype":"uint8"}},{"name":"generator_hosoda/in05_1/beta","shape":[256],"dtype":"float32","quantization":{"min":-0.0565408022964702,"scale":0.0004097159586700739,"dtype":"uint8"}},{"name":"generator_hosoda/conv05_1/kernel","shape":[3,3,256,256],"dtype":"float32","quantization":{"min":-0.09149859687861274,"scale":0.0007261793403064503,"dtype":"uint8"}},{"name":"generator_hosoda/conv05_1/bias","shape":[256],"dtype":"float32","quantization":{"min":-3.957035988637962e-9,"scale":2.8264542775985444e-11,"dtype":"uint8"}},{"name":"generator_hosoda/in05_1/gamma","shape":[256],"dtype":"float32","quantization":{"min":0.05606256425380707,"scale":0.003659185299686357,"dtype":"uint8"}},{"name":"generator_hosoda/conv05_2/kernel","shape":[3,3,256,256],"dtype":"float32","quantization":{"min":-0.09591787001665901,"scale":0.0007493583595051485,"dtype":"uint8"}},{"name":"generator_hosoda/conv05_2/bias","shape":[256],"dtype":"float32","quantization":{"min":-1.0094440734278845e-8,"scale":8.412033945232371e-11,"dtype":"uint8"}},{"name":"generator_hosoda/in05_2/gamma","shape":[256],"dtype":"float32","quantization":{"min":0.024127457290887833,"scale":0.0037582033843386407,"dtype":"uint8"}},{"name":"generator_hosoda/in04_2/beta","shape":[256],"dtype":"float32","quantization":{"min":-0.03426511685053507,"scale":0.0003143588701883952,"dtype":"uint8"}},{"name":"generator_hosoda/in04_1/beta","shape":[256],"dtype":"float32","quantization":{"min":-0.04014460761465278,"scale":0.0003897534719869202,"dtype":"uint8"}},{"name":"generator_hosoda/conv04_1/kernel","shape":[3,3,256,256],"dtype":"float32","quantization":{"min":-0.09446199252909306,"scale":0.0007556959402327444,"dtype":"uint8"}},{"name":"generator_hosoda/conv04_1/bias","shape":[256],"dtype":"float32","quantization":{"min":-7.65047353050196e-9,"scale":1.0066412540134158e-10,"dtype":"uint8"}},{"name":"generator_hosoda/in04_1/gamma","shape":[256],"dtype":"float32","quantization":{"min":0.05208197981119156,"scale":0.0036806091081862356,"dtype":"uint8"}},{"name":"generator_hosoda/conv04_2/kernel","shape":[3,3,256,256],"dtype":"float32","quantization":{"min":-0.0989831635765001,"scale":0.0007982513191653233,"dtype":"uint8"}},{"name":"generator_hosoda/conv04_2/bias","shape":[256],"dtype":"float32","quantization":{"min":-1.0650102924177742e-8,"scale":8.129849560441025e-11,"dtype":"uint8"}},{"name":"generator_hosoda/in04_2/gamma","shape":[256],"dtype":"float32","quantization":{"min":0.025106003507971764,"scale":0.0037740600240581176,"dtype":"uint8"}},{"name":"generator_hosoda/in03_1/beta","shape":[256],"dtype":"float32","quantization":{"min":-0.0264846030403586,"scale":0.00041382192250560314,"dtype":"uint8"}},{"name":"generator_hosoda/in02_1/beta","shape":[128],"dtype":"float32","quantization":{"min":-0.04116895347833634,"scale":0.00040361719096408173,"dtype":"uint8"}},{"name":"generator_hosoda/in01_1/beta","shape":[64],"dtype":"float32","quantization":{"min":-0.011797817478723386,"scale":0.0002621737217494086,"dtype":"uint8"}},{"name":"generator_hosoda/conv01_1/kernel","shape":[7,7,3,64],"dtype":"float32","quantization":{"min":-0.07860696830001532,"scale":0.0006141169398438697,"dtype":"uint8"}},{"name":"generator_hosoda/conv01_1/bias","shape":[64],"dtype":"float32","quantization":{"min":-8.847254706797328e-8,"scale":7.626943712756317e-10,"dtype":"uint8"}},{"name":"generator_hosoda/in01_1/gamma","shape":[64],"dtype":"float32","quantization":{"min":0.06629107147455215,"scale":0.0035974512789763657,"dtype":"uint8"}},{"name":"generator_hosoda/conv02_1/kernel","shape":[3,3,64,128],"dtype":"float32","quantization":{"min":-0.08749493126775705,"scale":0.0007056042844173955,"dtype":"uint8"}},{"name":"generator_hosoda/conv02_1/bias","shape":[128],"dtype":"float32","quantization":{"min":-1.7673756494385838e-7,"scale":1.5503295170513893e-9,"dtype":"uint8"}},{"name":"generator_hosoda/conv02_2/kernel","shape":[3,3,128,128],"dtype":"float32","quantization":{"min":-0.09037461374320235,"scale":0.0007060516698687684,"dtype":"uint8"}},{"name":"generator_hosoda/conv02_2/bias","shape":[128],"dtype":"float32","quantization":{"min":-2.9331698739582077e-8,"scale":2.0656125872945124e-10,"dtype":"uint8"}},{"name":"generator_hosoda/in02_1/gamma","shape":[128],"dtype":"float32","quantization":{"min":0.04379763826727867,"scale":0.0036922738978675766,"dtype":"uint8"}},{"name":"generator_hosoda/conv03_1/kernel","shape":[3,3,128,256],"dtype":"float32","quantization":{"min":-0.09189657697490618,"scale":0.0007179420076164545,"dtype":"uint8"}},{"name":"generator_hosoda/conv03_1/bias","shape":[256],"dtype":"float32","quantization":{"min":-2.022578615544583e-7,"scale":1.5678903996469636e-9,"dtype":"uint8"}},{"name":"generator_hosoda/conv03_2/kernel","shape":[3,3,256,256],"dtype":"float32","quantization":{"min":-0.10248073234277613,"scale":0.0007883133257136625,"dtype":"uint8"}},{"name":"generator_hosoda/conv03_2/bias","shape":[256],"dtype":"float32","quantization":{"min":-1.8984092436620116e-8,"scale":1.375658872218849e-10,"dtype":"uint8"}},{"name":"generator_hosoda/in03_1/gamma","shape":[256],"dtype":"float32","quantization":{"min":0.057947155088186264,"scale":0.003638357990512661,"dtype":"uint8"}},{"name":"generator_hosoda/deconv01_1/bias","shape":[128],"dtype":"float32","quantization":{"min":-2.0758013761223994e-7,"scale":1.52632454126647e-9,"dtype":"uint8"}},{"name":"generator_hosoda/deconv01_2/kernel","shape":[3,3,128,128],"dtype":"float32","quantization":{"min":-0.09645445346832275,"scale":0.0007778584957122802,"dtype":"uint8"}},{"name":"generator_hosoda/deconv01_2/bias","shape":[128],"dtype":"float32","quantization":{"min":-1.0550328572434205e-8,"scale":6.85086270937286e-11,"dtype":"uint8"}},{"name":"generator_hosoda/in12_1/gamma","shape":[128],"dtype":"float32","quantization":{"min":0.04984648525714874,"scale":0.0036008694008284924,"dtype":"uint8"}},{"name":"generator_hosoda/deconv01_1/strided_slice_3/stack","shape":[3],"dtype":"int32","quantization":{"min":0,"scale":0.00392156862745098,"dtype":"uint8"}},{"name":"generator_hosoda/deconv01_1/strided_slice_3/stack_1","shape":[3],"dtype":"int32","quantization":{"min":0,"scale":1,"dtype":"uint8"}},{"name":"generator_hosoda/deconv01_1/strided_slice_3/stack_2","shape":[3],"dtype":"int32","quantization":{"min":1,"scale":1,"dtype":"uint8"}},{"name":"generator_hosoda/deconv02_1/bias","shape":[64],"dtype":"float32","quantization":{"min":-1.8364619336352916e-7,"scale":1.3503396570847732e-9,"dtype":"uint8"}},{"name":"generator_hosoda/Pad_15/paddings","shape":[4,2],"dtype":"int32","quantization":{"min":0,"scale":0.00392156862745098,"dtype":"uint8"}},{"name":"generator_hosoda/deconv02_2/kernel","shape":[3,3,64,64],"dtype":"float32","quantization":{"min":-0.09157677929775387,"scale":0.0007044367638288759,"dtype":"uint8"}},{"name":"generator_hosoda/deconv02_2/bias","shape":[64],"dtype":"float32","quantization":{"min":-9.169052289365152e-8,"scale":7.163322101066525e-10,"dtype":"uint8"}},{"name":"generator_hosoda/in11_1/moments/mean/reduction_indices","shape":[2],"dtype":"int32","quantization":{"min":1,"scale":0.00392156862745098,"dtype":"uint8"}},{"name":"generator_hosoda/in11_1/instancenorm/add/y","shape":[],"dtype":"float32","quantization":{"min":9.999999717180685e-10,"scale":1,"dtype":"uint8"}},{"name":"generator_hosoda/in13_1/gamma","shape":[64],"dtype":"float32","quantization":{"min":0.037439700216054916,"scale":0.0036674775475380467,"dtype":"uint8"}},{"name":"generator_hosoda/Pad/paddings","shape":[4,2],"dtype":"int32","quantization":{"min":0,"scale":0.011764705882352941,"dtype":"uint8"}},{"name":"generator_hosoda/deconv03_1/kernel","shape":[7,7,64,3],"dtype":"float32","quantization":{"min":-0.26633498510893655,"scale":0.001972851741547678,"dtype":"uint8"}},{"name":"generator_hosoda/deconv03_1/bias","shape":[3],"dtype":"float32","quantization":{"min":-1.6246141586527622e-7,"scale":9.613101530489717e-10,"dtype":"uint8"}}]}]}